test/models/danceability-msd-musicnn-1.onnx (onnx, 82057 bytes, 4 tensors)

dense_1/kernel/read:0 f4 [100, 2]
0	0x3de4aaf3	0.111654185
1	0x3dd0b138	0.10190052
2	0x3d6b9d21	0.057522897
3	0x3d4950a8	0.049149185
4	0x3e31d512	0.17366436
5	0xbe13adf0	-0.1442182
6	0x3d4e9f1f	0.05044472
7	0xbdd869b5	-0.10567037
8	0xbe5c1032	-0.21490553
9	0x3d13ee94	0.036116198
10	0x3e3f00f2	0.18652704
11	0xbd4237e5	-0.047416586
12	0x3d856535	0.06513444
13	0xbded0953	-0.11574044
14	0xbe045aa6	-0.12925205
15	0x3d4f9ea9	0.05068842
16	0xbe47ef7e	-0.19524953
17	0xbe3758ed	-0.17905016
18	0x3dec96b4	0.11552182
19	0x3e2e84f6	0.17042908
20	0xbda63a35	-0.08116571
21	0xbe066bff	-0.13127135
22	0x3bb2f609	0.0054614586
23	0x3e360cc4	0.17778307
24	0xbe9a1199	-0.3009155
25	0x3ca4e3f9	0.020128237
26	0xbcde466c	-0.02713319
27	0xbdfd7d66	-0.123774335
28	0xbc8f2ae8	-0.017476514
29	0xbd439286	-0.047747158
30	0x3d04e5a9	0.032445583
31	0x3e55e8cb	0.20889585
32	0xbdb06bb3	-0.08614292
33	0xbd594715	-0.053046305
34	0xbd4fb73c	-0.050711855
35	0xbdf7af38	-0.12093967
36	0xbddb7d96	-0.10717313
37	0xbd569300	-0.052386284
38	0xbe939c76	-0.28830308
39	0x3ddf9c00	0.109184265
40	0x3d165e01	0.036710743
41	0x3e370818	0.17874181
42	0x3d9bca71	0.07606972
43	0xbd4b49a8	-0.04963079
44	0x3cb71121	0.022347035
45	0x3b1a6a7b	0.0023562002
46	0xbdeeb255	-0.11655108
47	0xbc361378	-0.01111304
48	0x3dc5c0ab	0.09655889
49	0xbe68c53c	-0.22731489
50	0xbd748d5f	-0.059705134
51	0xbdcea3c6	-0.10089831
52	0xbcf3ef90	-0.029777318
53	0xbd61960a	-0.05507473
54	0x3d660a65	0.056162257
55	0x3cd965b7	0.02653776
56	0xbd7f36b9	-0.062308047
57	0x3e8f3e26	0.27977103
58	0x3e119500	0.14216995
59	0x3cf7990f	0.030224351
60	0xbd9f5f91	-0.077819
61	0xbe3e2b66	-0.18571243
62	0x3cae6890	0.021290094
63	0x3d8e93dd	0.069617964
64	0xbe3c6d68	-0.1840111
65	0xbe0dd47a	-0.13850585
66	0xbe6c9df4	-0.2310713
67	0x3e2e271f	0.17007111
68	0x3d992f5f	0.074797384
69	0x3dcc5259	0.09976644
70	0x3dd07dcc	0.10180244
71	0x3e79decf	0.24401401
72	0xbe4fa4ac	-0.20277661
73	0xbdb65eb7	-0.08904784
74	0x3dd6e339	0.10492558
75	0xbc86f7a6	-0.01647551
76	0x3c191df1	0.0093455175
77	0x3dbd430d	0.092413045
78	0xbdaa70d8	-0.083223045
79	0xbd8ad499	-0.06778831
80	0x3e0f8567	0.14015733
81	0x3e08bf03	0.13354115
82	0xbd2a4ef1	-0.04157919
83	0xbd7234f1	-0.05913252
84	0xbdb2d6ef	-0.087324016
85	0x3d965738	0.073408544
86	0xbdf6b0d7	-0.12045448
87	0x3d1877e3	0.037223708
88	0x3dda2a61	0.106526144
89	0x3d8ce399	0.06879348
90	0xbdc6b8ee	-0.09703241
91	0x3e221ca3	0.15831237
92	0xbe0fbf39	-0.1403779
93	0xbba4a0bb	-0.0050240434
94	0xbc4b545c	-0.01241025
95	0xbc0ecdc8	-0.008716054
96	0x3e677f2f	0.2260711
97	0xbe061644	-0.13094431
98	0xbd946065	-0.07244948
99	0x3ca7d07e	0.020485159
100	0x3cc81356	0.024423283
101	0xbe9394f3	-0.28824577
102	0xbe8cd5fb	-0.27507004
103	0xbe2f794b	-0.17136113
104	0xbc4642c1	-0.012100876
105	0xbc2fde0b	-0.0107340915
106	0x3e6258a4	0.22104126
107	0x3d240705	0.040045757
108	0x3e321b19	0.1739315
109	0xbdaadadd	-0.08342526
110	0x3ddb4253	0.1070601
111	0xbd3fbc81	-0.04681063
112	0x3e1fc3af	0.15601991
113	0xbe33b2aa	-0.17548624
114	0x3df73b6b	0.1207188
115	0xbe8b95f1	-0.27262834
116	0xbd881974	-0.0664548
117	0x3daf90b2	0.0857252
118	0x3c3f6a68	0.011683084
119	0x3de611a3	0.11233833
120	0x3deb8b67	0.11501198
121	0x3cb95669	0.022624211
122	0x3c689c55	0.014197429
123	0xbddadcf6	-0.10686676
124	0xbd136afd	-0.035990704
125	0xbcd89380	-0.026437521
126	0xbda47956	-0.080309555
127	0x3be7a905	0.0070697092
128	0x3e29f68f	0.16597961
129	0x3d9d32ee	0.0767573
130	0x3dafdf11	0.085874684
131	0xbba59683	-0.005053343
132	0x3e3d829f	0.18506859
133	0x3e611493	0.21980505
134	0xbc64bcc0	-0.013961017
135	0x3d29db1e	0.041468732
136	0x3e53c79c	0.20681614
137	0xbddd5a1f	-0.10808205
138	0xbd007b59	-0.031367633
139	0x3d96abf7	0.073570184
140	0xbcacb2b2	-0.021081302
141	0x3d870828	0.065933526
142	0x3da16a6b	0.07881626
143	0xbd2bebdd	-0.041972984
144	0x3d074ecc	0.03303413
145	0xbd3aa2e4	-0.0455655
146	0xbdd2b096	-0.10287587
147	0xbdfe4c38	-0.12416881
148	0x3d94081b	0.072281085
149	0xbccf2657	-0.025286837
150	0x3caf88e4	0.02142758
151	0xbe61087b	-0.21975891
152	0xbe125930	-0.14291835
153	0xbe0f8496	-0.14015421
154	0xbe904762	-0.2817946
155	0xbd58ce46	-0.052931093
156	0x3cc0f43a	0.023553956
157	0x3e45ec35	0.19328387
158	0xbc5524f8	-0.013009302
159	0x3e5c0869	0.21487583
160	0xbe39b966	-0.1813713
161	0xbe6b6d6c	-0.2299096
162	0xbe3e5704	-0.18587881
163	0x3e69ee14	0.22844726
164	0xbe045a4e	-0.12925074
165	0xbdbdf93d	-0.09276054
166	0xbc8d1616	-0.017222445
167	0x3df853c2	0.121253505
168	0xbe11990a	-0.14218536
169	0xbe5fd8cc	-0.21860045
170	0xbe164845	-0.14676006
171	0xbd170405	-0.036869068
172	0xbe4cb9e9	-0.19992794
173	0x3c2ee91f	0.010675698
174	0xbd80ed0c	-0.06295213
175	0xbe0dd7a5	-0.13851793
176	0xbd751b54	-0.059840515
177	0x3e09eff3	0.1347044
178	0xbd8a373f	-0.067488186
179	0xbd985ce3	-0.07439592
180	0xbe120975	-0.1426142
181	0x3ce97576	0.028498393
182	0xbe985039	-0.29748705
183	0x3d15f78a	0.036613025
184	0xbe72a942	-0.23697379
185	0x3d95eb0c	0.07320222
186	0xbdc5793e	-0.09642266
187	0x3dd5a879	0.10432524
188	0x3dc978b9	0.09837479
189	0x3e3de45e	0.18544146
190	0x3dfcefc9	0.12350423
191	0x3daf36e6	0.08555393
192	0xbc93c958	-0.018040344
193	0x3d2c8b3e	0.04212498
194	0x3e2ded57	0.16985069
195	0xbe7d340f	-0.2472689
196	0xbda8d7fe	-0.08244322
197	0xbe4e55e7	-0.20149957
198	0x3d545d5f	0.051846858
199	0xbe67f3ad	-0.22651549

dense_1/bias/read:0 f4 [2]
0	0x3bd50e22	0.006501929
1	0xbbd50e1e	-0.006501927

dense/kernel/read:0 f4 [200, 100]
0	0x3dad9319	0.08475322
1	0x3da23287	0.079197936
2	0x3d6306ec	0.055426523
3	0x3d5c2aa2	0.053751595
4	0x3df9d25b	0.12198325
5	0xbdd40300	-0.10352135
6	0x3d4739d2	0.048639126
7	0xbdb2e326	-0.087347314
8	0xbe21c683	-0.15798382
9	0x3ce2de7c	0.02769398
10	0x3e1103ca	0.14161602
11	0xbd3e6731	-0.04648513
12	0x3d31e4de	0.043431155
13	0xbd9f9e66	-0.07793884
14	0xbdbe4aa1	-0.09291578
15	0x3d5711b8	0.052507132
16	0xbe09c50d	-0.13454075
17	0xbe04b1f2	-0.12958506
18	0x3db556f9	0.08854479
19	0x3dd31021	0.10305811
20	0xbd3f7c1d	-0.046749223
21	0xbd9ca5b8	-0.07648796
22	0xbb2a13cd	-0.0025951744
23	0x3df89fb1	0.12139834
24	0xbe5b46b1	-0.21413685
25	0x3d1804d5	0.037113983
26	0xbcce86b1	-0.02521071
27	0xbd99fcb1	-0.075189
28	0xbcb7435a	-0.022370983
29	0xbc338595	-0.010957141
30	0x3d059420	0.032611966
31	0x3e01d227	0.12677823
32	0xbd9cdcc8	-0.07659298
33	0xbceed519	-0.029154347
34	0xbcff3ba1	-0.031156363
35	0xbd940b11	-0.07228673
36	0xbdb3e3aa	-0.08783658
37	0xbc8f0c28	-0.017461851
38	0xbe5c62e5	-0.215221
39	0x3dc6a76f	0.09699904
40	0x3d042af3	0.032267522
41	0x3dfb8523	0.12281253
42	0x3d93c824	0.07215908
43	0xbd3c7eb8	-0.046019286
44	0x3c831247	0.015999926
45	0x3c4a1ce7	0.012335992
46	0xbdcca97b	-0.09993263
47	0xbc1053c8	-0.0088090375
48	0x3d944fe9	0.07241804
49	0xbe2b9aac	-0.16758221
50	0xbd2745f8	-0.04083821
51	0xbd8c4d81	-0.0685072
52	0xbc192ac3	-0.009348574
53	0xbd158197	-0.03650054
54	0x3d76da0a	0.060266532
55	0x3caa3ac5	0.020779977
56	0xbc79fc85	-0.015257959
57	0x3e512caf	0.20427202
58	0x3d9c12f9	0.07620806
59	0x3d0ae1f9	0.03390691
60	0xbd6f9b6a	-0.058497824
61	0xbe060d78	-0.13091075
62	0xbad10b38	-0.0015948778
63	0x3d30efd1	0.043197457
64	0xbe05760f	-0.13033317
65	0xbdadc430	-0.084846854
66	0xbe3d0284	-0.18457991
67	0x3e07832d	0.13233633
68	0x3d727f9e	0.059203736
69	0x3d8fb592	0.07017054
70	0x3da3a843	0.07991078
71	0x3e3c941d	0.18415876
72	0xbe191c2e	-0.14952156
73	0xbd757e6e	-0.059935026
74	0x3daa0ca4	0.08303192
75	0x3c6575ad	0.014005107
76	0xbc8ad909	-0.016949194
77	0x3d8111bd	0.063022114
78	0xbda800d4	-0.08203283
79	0xbc8ac996	-0.016941827
80	0x3ddabb82	0.106802955
81	0x3dbc5b7d	0.091971375
82	0xbd4bbbb5	-0.04973956
83	0xbd3dc082	-0.046326168
84	0xbd708e90	-0.05872971
85	0x3d5937f3	0.053031873
86	0xbdc37f50	-0.09545767
87	0x3cfc44d2	0.030794535
88	0x3d85b2dd	0.06528256
89	0x3d4af5a4	0.049550667
90	0xbd83c79b	-0.06434556
91	0x3e0c8511	0.13722636
92	0xbdd5d55c	-0.10441086
93	0xbbbdc318	-0.0057910793
94	0xbcfae1c3	-0.03062523
95	0x3bf45efd	0.0074576125
96	0x3e301a5f	0.1719756
97	0xbdadadc1	-0.084804066
98	0xbd803ee1	-0.06261993
99	0x3d311d65	0.043240923
100	0x3cdd66c7	0.027026547
101	0xbe57039d	-0.20997472
102	0xbe576697	-0.21035229
103	0xbdfa29f0	-0.1221503
104	0x3c2d2aba	0.010569269
105	0xbade389b	-0.0016954126
106	0x3e195f31	0.14977719
107	0x3d1a1903	0.03762151
108	0x3e011bc3	0.12608247
109	0xbd4381fb	-0.04773138
110	0x3da56086	0.08075051
111	0xbcbf926b	-0.023385247
112	0x3e007de6	0.12548026
113	0xbe0a1f4f	-0.13488506
114	0x3db00add	0.08595822
115	0xbe423bb7	-0.18968092
116	0xbd882d63	-0.06649282
117	0x3d9ab465	0.07553939
118	0x3c59ed84	0.013301257
119	0x3da07716	0.07835214
120	0x3d83c4a6	0.06433992
121	0x3ca625c0	0.020281672
122	0xbb5e104f	-0.0033884232
123	0xbd67f180	-0.056626797
124	0xbcfc2737	-0.030780418
125	0xbc2cd664	-0.010549162
126	0xbd8721cf	-0.06598245
127	0xbbad5e9f	-0.0052908207
128	0x3de9974f	0.11405813
129	0x3d7a19b0	0.061059654
130	0x3d44d694	0.0480562
131	0x3c303831	0.010755585
132	0x3e098398	0.13429105
133	0x3e384201	0.17993928
134	0xbb4abfa7	-0.0030936988
135	0x3cc603f7	0.024171812
136	0x3e055808	0.13021863
137	0xbdc0242f	-0.093819015
138	0xbc8b3c73	-0.016996598
139	0x3d98f166	0.07467918
140	0xbbd4fde1	-0.0064999913
141	0x3d839aaf	0.06425988
142	0x3d6b4345	0.0574372
143	0xbd260dc9	-0.04054049
144	0x3d01e7ad	0.031715084
145	0xbca5b1be	-0.020226356
146	0xbd8c9bd6	-0.06865661
147	0xbd9af90d	-0.07567034
148	0x3d005da3	0.0313393
149	0xbc400955	-0.011720975
150	0x3cce31d2	0.02517024
151	0xbe1598aa	-0.14609018
152	0xbdbf05ff	-0.093273155
153	0xbdcb2002	-0.099182144
154	0xbe48011c	-0.19531673
155	0xbd4e709d	-0.050400365
156	0x3c914b47	0.01773609
157	0x3e0d5cdc	0.13804954
158	0x3c16fb44	0.00921518
159	0x3e0b3529	0.13594498
160	0xbde1b01e	-0.1101992
161	0xbe254d7d	-0.1614284
162	0xbe0d8af2	-0.13822535
163	0x3e43a01c	0.19104046
164	0xbddd424b	-0.1080366
165	0xbd8867e2	-0.06660439
166	0xbc7f53bc	-0.015583929
167	0x3dda79b9	0.10667748
168	0xbddbf98d	-0.107409574
169	0xbe1e394d	-0.15451546
170	0xbdc92839	-0.09822125
171	0xbca933b4	-0.020654537
172	0xbe12d36e	-0.14338467
173	0x3c3487df	0.011018722
174	0xbd7a9ca4	-0.06118454
175	0xbdd378e1	-0.1032579
176	0xbd1fddc3	-0.039029848
177	0x3dc0cd20	0.094141245
178	0xbd1c5e04	-0.038175598
179	0xbd33eafc	-0.04392527
180	0xbdd7e00d	-0.10540781
181	0x3ce99a94	0.028516091
182	0xbe63d763	-0.22250132
183	0x3d34cfd9	0.04414353
184	0xbe32aad8	-0.17447984
185	0x3d7f5f8b	0.062346976
186	0xbd6aa793	-0.057288717
187	0x3dc2028e	0.094731435
188	0x3d9a3073	0.07528772
189	0x3e0dd5f7	0.13851152
190	0x3db35a22	0.08757426
191	0x3d8cd835	0.06877176
192	0x39d148a9	0.00039917722
193	0x3d4f713e	0.050645106
194	0x3e01f32c	0.12690419
195	0xbe3460f4	-0.1761511
196	0xbd7e16ba	-0.062033392
197	0xbe19bc81	-0.15013315
198	0x3c93003a	0.017944444
199	0xbe27e5dd	-0.1639628
200	0x3e06e3c8	0.13172829
201	0xbe08a419	-0.13343848
202	0xbdec43aa	-0.115363434
203	0xbd464f54	-0.048415497
204	0xbcab588f	-0.020916251
205	0xbe0a0e18	-0.13481939
206	0x3d59bfaf	0.05316132
207	0x3cb3cd35	0.021948436
208	0xbe144ce9	-0.14482464
209	0x3d86ae08	0.065761626
210	0x3b78d025	0.003796586
211	0x3e3e703d	0.18597503
212	0x3d78b5f4	0.0607204
213	0xbe3619d4	-0.1778329
214	0xbe3561bb	-0.17713062
215	0xbe12450d	-0.14284153
216	0xbcc5ff26	-0.024169516
217	0xbc5dc396	-0.013535401
218	0x3d55dc04	0.052211776
219	0x3d2ac433	0.041691016
220	0x3d7ecae9	0.06220523
221	0x3e2aefe4	0.16693074
222	0xbe16a9f8	-0.14713275
223	0xbd3cb1b6	-0.046067916
224	0xbde11a68	-0.10991365
225	0x3deb19ac	0.11479506
226	0xbd31b563	-0.043385874
227	0xbcae6463	-0.021288102
228	0xbd941c2c	-0.07231936
229	0xbe10f085	-0.14154251
230	0x3bb0d1fe	0.005396127
231	0xbca79a62	-0.020459358
232	0xbe0444d2	-0.12916878
233	0xbd60be04	-0.054868713
234	0xbd134eb6	-0.035963736
235	0x3cf25c5a	0.029585052
236	0xbe5f93fe	-0.21833798
237	0x3e010dbd	0.12602897
238	0xbde68e9d	-0.1125767
239	0xbc992381	-0.018693687
240	0x3c9c6761	0.019092264
241	0xbcf593af	-0.029977648
242	0x3cd4ce00	0.025977135
243	0xbd29374f	-0.041312512
244	0x3d175815	0.036949236
245	0x3e40e925	0.18838938
246	0xbd86e21c	-0.06586096
247	0x3daf2106	0.085512206
248	0x3c00cb21	0.00786093
249	0x3daecd96	0.08535306
250	0x3c7b5a1e	0.01534131
251	0xbd07515b	-0.03303657
252	0xbd077467	-0.033069994
253	0x3dbde9fc	0.092731446
254	0x3e0e1f48	0.1387912
255	0xbd7d50b1	-0.06184453

dense/bias/read:0 f4 [100]
0	0xbc82c816	-0.015964549
1	0x3b10a4f4	0.0022070976
2	0x3bbd1d29	0.0057712984
3	0x3bba83f0	0.0056919977
4	0xbc880c56	-0.016607445
5	0xbbdb5296	-0.0066931946
6	0xbb6bae80	-0.0035962164
7	0xbb98c3e9	-0.004662026
8	0xbc95ac5b	-0.018270662
9	0xbc2043e5	-0.009781812
10	0x3b9357a5	0.004496532
11	0xbbe9ab92	-0.0071310485
12	0xbc2e3f4b	-0.010635207
13	0x3befa74e	0.0073136454
14	0xbbb34470	-0.005470805
15	0xbb1d4056	-0.0023994646
16	0xbb75a637	-0.0037483105
17	0x39930db9	0.0002804825
18	0xbc323066	-0.010875797
19	0xbaf6f419	-0.0018841057
20	0x3c15809d	0.009124902
21	0xbaebbcde	-0.0017985364
22	0x3b838715	0.004013906
23	0xbc4fb1ae	-0.0126766395
24	0xbba2d0b5	-0.0049687275
25	0x3b3c6058	0.0028743949
26	0xbb073818	-0.00206328
27	0x3b82d648	0.0039928295
28	0xbc3a03ea	-0.011353472
29	0x3bd7e1ba	0.006588188
30	0x3b4218d0	0.002961684
31	0xbc07e448	-0.008294173
32	0xbc457d19	-0.012053751
33	0xbbb1ff88	-0.005432073
34	0xbc35d5af	-0.011098309
35	0x3ba4c681	0.0050285463
36	0xbbde4524	-0.0067831445
37	0x3c5e2e3a	0.013560826
38	0xbc67b67b	-0.014142628
39	0xbbf30832	-0.0074167484
40	0xbcd79967	-0.026318265
41	0xbc92ee80	-0.017935991
42	0xbc00f73f	-0.007871448
43	0xbbf5b9f0	-0.007498972
44	0xbbee5f35	-0.007274533
45	0x386876b0	5.5423647e-05
46	0xbc0cd7f3	-0.008596408
47	0xbc3eda5b	-0.01164874
48	0x3c5b721c	0.013393905
49	0xbc9086b5	-0.017642358
50	0xbb699429	-0.003564129
51	0xbb9dafea	-0.0048122304
52	0xbc8f3407	-0.017480863
53	0x3bc63888	0.0060492195
54	0x3a36a724	0.0006967655
55	0xbbaa3c0a	-0.0051951455
56	0xbb00387b	-0.0019564915
57	0x3b9643fd	0.0045857416
58	0xbc8da10b	-0.017288705
59	0x39d27da8	0.00040147942
60	0xbc8bd85f	-0.017070947
61	0xbb66f13a	-0.0035238997
62	0xbb9f9e28	-0.0048711486
63	0xbbfc78b5	-0.007704819
64	0xbbb82418	-0.005619537
65	0x3ba80304	0.0051273126
66	0xbc1076e8	-0.008817412
67	0xbc2f2bea	-0.010691622
68	0x391e1ca2	0.00015078721
69	0xbab27088	-0.0013613859
70	0xbace26f4	-0.0015728162
71	0x3a638d09	0.00086803787
72	0xbbc7f644	-0.006102355
73	0xbbdb93d0	-0.00670097
74	0xbc5d567e	-0.013509391
75	0x3b360be6	0.0027778088
76	0xbc37143a	-0.011174256
77	0x3c2c6473	0.010521996
78	0xbc110b1c	-0.008852746
79	0xbb5d3bc6	-0.0033757552
80	0x3a6020d8	0.0008549816
81	0xbc433e9a	-0.011916781
82	0xbbdf407d	-0.0068131075
83	0xb9c5f2c3	-0.0003775564
84	0x3bd2c333	0.006431961
85	0xbc49ecf0	-0.012324557
86	0xbc466ff1	-0.01211165
87	0xbbb3920a	-0.0054800557
88	0xbc24067a	-0.01001131
89	0xbb68146e	-0.0035412568
90	0xbb53b1bc	-0.0032301983
91	0xbb679e6c	-0.003534223
92	0xbc810b2b	-0.015752396
93	0xbc436ec9	-0.011928269
94	0xbc16840e	-0.009186758
95	0x3aa43617	0.0012528327
96	0x3a7e2a87	0.0009695668
97	0x3bce52b9	0.0062964824
98	0x3be30c4b	0.0069289557
99	0xb91bec2f	-0.00014869937
