test/models/mood_party-msd-musicnn-1.onnx (onnx, 82055 bytes, 4 tensors)

dense_1/kernel/read:0 f4 [100, 2]
000000 d8 45 f2 3d da 16 c3 3d 38 c1 93 3d d8 6c 0d 3d
       0.11829728 0.09525843 0.07214588 0.03452763
000010 ef eb 2c 3e c2 c4 0e be f5 1e 7f 3d a6 a9 f0 bd
       0.16886877 -0.13942245 0.062285382 -0.11751108
000020 58 9b 51 be f5 34 d4 3c be 42 4b 3e 05 3e 73 bd
       -0.20469415 0.025904158 0.19849679 -0.05938532
000030 6d 51 6c 3d dd cc dd bd e4 3c 12 be d0 93 83 3d
       0.05769484 -0.1083009 -0.1428104 0.06424677
000040 5e d6 43 be 0b 73 3b be 86 8f f9 3d 2e 08 28 3e
       -0.19124743 -0.18305604 0.12185578 0.1640937
000050 6f 21 9b bd a6 f8 0b be 95 6f a8 bb 0c e8 40 3e
       -0.07574736 -0.1366907 -0.0051402547 0.18838519
000060 e3 c1 a0 be 60 f3 07 3d 6d 5d 0f bd af 61 ed bd
       -0.31397924 0.033191085 -0.035001207 -0.11590897
000070 14 6b 80 bc c3 f2 4a bd be 80 2b 3d f7 42 4c 3e
       -0.015676059 -0.049547922 0.041870825 0.1994742
000080 35 dc aa bd ca 66 64 bd 68 ae 48 bd bb 34 fb bd
       -0.083427824 -0.05576209 -0.04899445 -0.12265917
000090 df 2e fa bd 07 34 19 bd 62 e0 96 be 99 ab ec 3d
       -0.12215971 -0.037403133 -0.29468066 0.11556167
0000a0 34 69 5c 3d 7d 86 25 3e 87 10 9b 3d 0e d4 49 bd
       0.053811267 0.16164584 0.07571512 -0.049274497
0000b0 60 d5 1d 3d 8e 98 62 bc cf 73 13 be 60 ba 85 3c
       0.03853357 -0.013830317 -0.14399646 0.016324222
0000c0 01 f0 d8 3d eb 5d 72 be 10 3b 64 bd 63 cd d6 bd
       0.10592652 -0.2366864 -0.05572039 -0.10488393
0000d0 7b c5 d2 bc ea 2b 72 bd ff 7e 81 3d aa 7b 9f 3c
       -0.025728932 -0.05912391 0.06323051 0.019468147
0000e0 66 54 46 bd 44 22 88 3e d4 0f f5 3d 18 02 58 3d
       -0.048420332 0.26588643 0.119659096 0.05273637
0000f0 6a 59 a7 bd 9c 2f 3a be 37 a8 2e 3c e1 58 a4 3d
       -0.08171351 -0.18182224 0.010660223 0.08024765
000100 6e 70 38 be 6c d1 11 be bd 91 74 be dd 1a 36 3e
       -0.18011639 -0.14240044 -0.2388372 0.17783685
000110 38 28 82 3d 4f 59 e3 3d f4 ec e4 3d bc aa 6f 3e
       0.06355327 0.11101019 0.11178008 0.23404974
000120 49 6a 71 be 92 b3 65 bd 6f 8e c7 3d be 48 13 bc
       -0.23575701 -0.056079455 0.09743964 -0.008989511
000130 da 1a 74 bb 2d 09 d8 3d 27 23 df bd 20 45 2c bd
       -0.003724745 0.10548625 -0.10895377 -0.04205811
000140 d2 8d fb 3d d3 80 1a 3e 8a f8 7a bd 18 8c 21 bd
       0.122829095 0.15088205 -0.06127218 -0.039440244
000150 ce 32 c6 bd 08 b3 a9 3d 1a 31 e6 bd c3 ee ee 3c
       -0.09677659 0.082861006 -0.11239834 0.029166585
000160 28 c8 d0 3d 54 46 96 3d f0 47 d6 bd 38 e4 29 3e
       0.10194427 0.07337633 -0.1046294 0.16590965
000170 a5 ac 14 be 02 d7 5e b9 8c 2a 12 bd d8 87 6e 3c
       -0.14518984 -0.00021251666 -0.035685107 0.014558755
000180 e0 4b 63 3e e2 e2 01 be 75 f9 9d bd bb 33 ce 3c
       0.22196913 -0.12684205 -0.07713596 0.025171151
000190 39 74 8d 3c 25 eb 8f be 0c 36 8d be de b9 2e be
       0.017267333 -0.2810909 -0.27580297 -0.1706309
0001a0 33 90 9e bc cc 05 64 bb 7f 6e 67 3e 64 b1 0f 3d
       -0.019355869 -0.0034793494 0.22600745 0.035081282
0001b0 20 58 2c 3e d7 54 9f bd 83 65 de 3d 8d 02 46 bd
       0.16830492 -0.07779854 0.108592056 -0.048342276
0001c0 05 b0 17 3e 0d 9f 2b be c0 40 db 3d 52 97 84 be
       0.1481324 -0.16759892 0.107057095 -0.25896698
0001d0 35 e1 75 bd e5 67 a2 3d e9 1a 54 3c c6 7c e3 3d
       -0.060029227 0.079299726 0.012945869 0.11107783
0001e0 31 5c e9 3d 9a 14 c2 3c bf f2 23 3b 3e e9 c2 bd
       0.11394537 0.023691464 0.0025016514 -0.09517144
0001f0 34 15 3d bc f5 70 50 bd 03 70 97 bd 82 ae 38 3a
       -0.0115407 -0.050888974 -0.073944114 0.00070450467
000200 fa f8 18 3e 33 2e bf 3d 00 48 8f 3d 98 ef 31 3c
       0.14938727 0.09334984 0.06996155 0.010860346
000210 16 36 2d 3e 97 61 71 3e e3 79 a7 bc f3 68 44 3d
       0.16915163 0.23572384 -0.020443862 0.04795165
000220 b2 73 4a 3e 15 b2 ca bd 98 ca 29 bd a4 53 ab 3d
       0.19770697 -0.09897248 -0.041452974 0.083655626
000230 21 97 64 bc 4e dd 70 3d 5d 64 b3 3d 2f df 4f bd
       -0.013952048 0.058804803 0.08759377 -0.050749954
000240 81 62 27 3d c1 b6 5a bd 36 8a b5 bd 9c b9 0d be
       0.040865425 -0.053396944 -0.08864252 -0.13840336
000250 9c 3c 82 3d b7 f8 87 bc 73 d7 47 3c e2 94 57 be
       0.063592166 -0.016598089 0.012197363 -0.21052888
000260 41 a6 17 be be 37 0a be ea 9c 84 be 17 18 9b bd
       -0.14809515 -0.13497826 -0.25900966 -0.07572954
000270 5f e2 98 3c 2c f0 4a 3e dc 99 f0 bb 0a 3c 56 3e
       0.01866263 0.19818181 -0.00734256 0.2092134
000280 8f 6b 50 be 1f bb 54 be 4d cb 41 be 5d 62 6d 3e
       -0.2035353 -0.20774506 -0.1892521 0.23182054
000290 c7 6f 13 be 49 cf 9f bd 15 2c ff bc a3 6c 0a 3e
       -0.14398108 -0.078032084 -0.03114895 0.13518004
0002a0 93 5c 0b be a4 15 66 be c2 af 21 be 1c cd d2 bc
       -0.13609533 -0.22469193 -0.15789703 -0.02573257
0002b0 4a 68 5c be 4c e8 d4 3c 57 b7 77 bd de 60 10 be
       -0.21524158 0.025989674 -0.06047758 -0.14099452
0002c0 02 f8 8b bd 0e a5 12 3e 30 13 74 bd f8 8a a8 bd
       -0.06834413 0.14320776 -0.05958861 -0.08229631
0002d0 ab cb 0c be 43 84 bf 3c 49 cf 9b be 35 ed 31 3d
       -0.13749568 0.023378497 -0.30431584 0.04343911
0002e0 5a 06 68 be 30 a6 80 3d 76 90 bc bd bc bf cc 3d
       -0.22658673 0.06281698 -0.09207241 0.09997508
0002f0 0f 10 cd 3d cb 18 3c 3e 14 b6 db 3d ef 70 d0 3d
       0.100128286 0.18368833 0.10728088 0.101777904
000300 07 03 a4 bc 32 a8 34 3d 78 30 32 3e 98 bb 80 be
       -0.020020975 0.044105716 0.17401302 -0.25143123
000310 e9 d6 b4 bd 5f 56 48 be e8 99 39 3d e2 42 61 be
       -0.08830053 -0.19564198 0.045312792 -0.2199817

dense_1/bias/read:0 f4 [2]
000000 97 17 de 3b 92 17 de bb
       0.0067777145 -0.006777712

dense/kernel/read:0 f4 [200, 100]
000000 fe 8a c1 3d c6 ce 99 3d 1b 6e 23 3d ab 63 1a 3d
       0.09450339 0.07510142 0.039899927 0.037692707
000010 39 a6 e8 3d 11 cd e5 bd f5 78 f8 3c cd 41 8b bd
       0.113598295 -0.11220754 0.030331114 -0.0679966
000020 d6 09 16 be 02 9f 02 3d 93 1b eb 3d c3 f5 e8 bc
       -0.1465219 0.031889923 0.11479869 -0.0284375
000030 9f 0d 38 3d ee af b7 bd 98 6a cb bd 6b 3b 62 3d
       0.044934865 -0.08969103 -0.099324405 0.055232447
000040 be 2f 05 be 6f f0 f8 bd 2b cc b7 3d 96 ef f8 3d
       -0.13006493 -0.12155234 0.08974489 0.121550724
000050 b7 29 6a bd 7a 18 c8 bd 34 38 59 3b 6b c0 0c 3e
       -0.05716869 -0.097702935 0.0033145072 0.13745277
000060 be 59 70 be 6c 0c d5 3c d1 a3 3a bd 1d 9f a5 bd
       -0.23471734 0.0260069 -0.045566384 -0.08086989
000070 03 24 d9 bc a6 98 1c bd 51 f7 cd 3c a5 7f 16 3e
       -0.02650643 -0.038231514 0.025142344 0.1469713
000080 52 b0 92 bd bc 31 fb bc 85 fb 31 bd 35 ff 85 bd
       -0.07162537 -0.030663364 -0.04345276 -0.065428175
000090 7a 6d 8d bd 25 48 1a bd a0 52 67 be fc 2b d2 3d
       -0.069056466 -0.03766646 -0.22590113 0.102622956
0000a0 bb f1 f6 3c d9 9e f0 3d d4 0a 78 3d 11 60 e2 bc
       0.030144563 0.11749048 0.0605572 -0.027633699
0000b0 76 12 78 3c 66 07 45 b9 1c 74 b9 bd 01 27 02 3c
       0.01514112 -0.0001879014 -0.09055349 0.00794387
0000c0 c0 1a 91 3d 41 35 17 be 36 7e 3f bd 5a 64 8b bd
       0.0708518 -0.14766409 -0.046751224 -0.0680625
0000d0 48 04 b3 bc 20 99 08 bd 14 4d 46 3d 72 5e 66 3c
       -0.021852627 -0.033349156 0.04841335 0.014060603
0000e0 11 b8 37 bd 61 74 47 3e 64 4c ca 3d a4 4e 54 3d
       -0.044853274 0.19477989 0.098778516 0.05183281
0000f0 90 7d 81 bd d6 67 08 be 10 83 03 3d cf ec 40 3d
       -0.06322777 -0.1332086 0.032107413 0.04710084
000100 70 f5 04 be b6 55 c7 bd 1c 7a 2d be bd 47 07 3e
       -0.12984252 -0.09733145 -0.16941112 0.1321096
000110 6b 42 52 3d 0b 89 9a 3d 4b f9 a9 3d 6a 01 29 3e
       0.051332872 0.0754567 0.08299502 0.16504446
000120 f1 47 17 be b7 9e 0f bd 7d 22 9a 3d f1 2e b8 bb
       -0.14773537 -0.03506347 0.07526109 -0.00562083
000130 31 04 12 bc 7a 27 a3 3d 55 c8 af bd 8d 31 8d bc
       -0.008912132 0.07966514 -0.08583132 -0.017235542
000140 07 e8 bb 3d 4b e4 c5 3d 65 3c 25 bd 95 5e 04 bd
       0.09175115 0.09662684 -0.0403408 -0.032316763
000150 e2 c5 92 bd f0 36 54 3d 3b c3 ab bd 2b 0c cd 3c
       -0.071666494 0.051810205 -0.08386847 0.025030216
000160 21 6e 9f 3d e2 04 1b 3d 53 7e 9c bd 1e 66 ed 3d
       0.07784677 0.037846453 -0.07641282 0.11591743
000170 31 40 fc bd f2 5a ba 3a 6e 6b 9a bc ce 0c c8 ba
       -0.12316931 0.0014217778 -0.018850055 -0.0015262605
000180 79 38 2b 3e 18 c5 b8 bd 4e ee 67 bd 98 a3 a9 3c
       0.16720761 -0.09021968 -0.05662375 0.02070789
000190 a0 14 31 3d 73 de 59 be ba 45 55 be ec 6d f0 bd
       0.04323256 -0.21276264 -0.2082738 -0.11739716
0001a0 47 08 ff ba 14 53 85 3b 1d cb 1b 3e d8 0b d1 3c
       -0.0019457423 0.0040687416 0.152142 0.025518343
0001b0 4c 6e ea 3d 84 d4 a7 bd 64 30 98 3d 47 d4 e1 bc
       0.11446819 -0.08194831 0.07431105 -0.027567042
0001c0 f6 4b d6 3d 5c 0f f7 bd 7f 85 ad 3d cb 9e 3b be
       0.10463707 -0.120634764 0.08472728 -0.18322293
0001d0 49 71 47 bd 87 5c 4c 3d 8a 5a e4 3b 97 0a a8 3d
       -0.04869202 0.04989293 0.006968801 0.08205145
0001e0 47 1c 95 3d ec b6 21 3d 53 98 c3 3b c7 c0 b9 bd
       0.07280784 0.03948109 0.005969086 -0.090699725
0001f0 83 63 1a bd 65 fa ab bc e6 5d 21 bd 41 2e db 3c
       -0.037692558 -0.02099342 -0.03939619 0.026755454
000200 fc 81 d9 3d 11 0f 96 3d e2 66 1b 3d 63 a8 a6 3a
       0.10620496 0.073270924 0.037939914 0.0012714978
000210 b0 2f 00 3e ea 86 2f 3e e4 10 bc 39 c1 5b 38 3d
       0.12518191 0.1714131 0.0003587074 0.04500938
000220 af 4c 12 3e b9 6c 9e bd 14 ae 8f bc a5 8f 4c 3d
       0.14287065 -0.07735581 -0.017539062 0.049941678
000230 4a 9c 2b bd d1 2f 15 3d 28 c9 78 3d fe ac 2e bd
       -0.041897096 0.036422554 0.060738713 -0.042645447
000240 cf 42 67 3c 57 c2 d0 bc 9c 6b 94 bd b4 7a bc bd
       0.0141150495 -0.025483293 -0.07247087 -0.09203091
000250 bd d8 41 3d c8 ec c6 bc cb fa a3 3c 6c aa 12 be
       0.04732584 -0.024282828 0.020017048 -0.14322823
000260 cb 5d eb bd 73 cf dd bd 92 b0 4d be de 72 4e bd
       -0.11492499 -0.108305834 -0.20086887 -0.050402515
000270 f8 f9 d7 3b 23 90 0c 3e ed a3 95 bc b4 59 00 3e
       0.006591078 0.13726859 -0.018266642 0.12534219
000280 51 05 0a be df 03 1a be 0f 47 0e be 52 73 2d 3e
       -0.1347859 -0.15040539 -0.13894294 0.16938522
000290 8d 68 c8 bd ed 83 61 bd fe 4f 2a bc 00 bd c0 3d
       -0.097855665 -0.055057455 -0.010395048 0.09411049
0002a0 59 df af bd 66 95 1c be d9 ef c5 bd 5a 76 88 bc
       -0.08587522 -0.15291366 -0.09664888 -0.016657997
0002b0 35 a5 14 be f3 b5 3c bb 88 8c d2 bc 4a 23 d6 bd
       -0.14516146 -0.0028794974 -0.025701776 -0.104559496
0002c0 59 cf 49 bd 8b 65 e8 3d 53 39 8d bd 98 7e 6d bd
       -0.049270008 0.11347493 -0.06895699 -0.057982057
0002d0 4a 83 c8 bd 29 f5 a7 3c 75 ba 5f be c1 e0 07 3d
       -0.097906664 0.020502644 -0.21848471 0.033173326
0002e0 ae b6 31 be 71 4f 88 3d 25 b1 94 bd 74 a2 b3 3d
       -0.17354843 0.06655777 -0.0726035 0.0877122
0002f0 06 fe 87 3d d7 de 08 3e a8 0a 89 3d 67 b2 87 3d
       0.06640248 0.13366257 0.06691486 0.066258244
000300 f2 cf ab bb 0f af d2 3c 40 33 f5 3d b1 ff 2c be
       -0.005243295 0.02571824 0.11972666 -0.16894414
000310 7d 1e 68 bd e8 df 13 be 6a 14 36 3d 09 8b 22 be
       -0.0566697 -0.14440882 0.044453062 -0.1587335
000320 a6 2c 02 3e 64 ff 12 be 57 cf d8 bd 13 79 56 bd
       0.12712345 -0.14355236 -0.10586422 -0.05236156
000330 f8 19 00 bb 00 4f 13 be b1 9a 9e 3d a7 f9 5f 3c
       -0.0019546729 -0.14385605 0.07744349 0.013670362
000340 00 9e 1a be 82 94 72 3d b4 fb 86 3c 86 52 2c 3e
       -0.15099335 0.05922366 0.016477443 0.16828355
000350 32 58 93 3d c0 1a 30 be 26 58 2f be 76 4c 16 be
       0.07194556 -0.17197704 -0.1712347 -0.14677605
000360 0d a6 9d bc 6a b1 bc bc fc b0 1c 3d 3b 2b 7c 3c
       -0.019244218 -0.023033816 0.038254723 0.015391166
000370 62 08 99 3d eb 2e 20 3e b1 e4 14 be 99 8c 19 bd
       0.07472302 0.15642898 -0.14540364 -0.0374876
000380 72 1f c7 bd 6d 2e ce 3d 74 e3 11 bd 68 23 ce bc
       -0.097227946 0.10067449 -0.035617307 -0.025163367
000390 d1 60 50 bd e5 b8 07 be 66 b3 9a 3c 76 ae 4d bd
       -0.05087358 -0.13254125 0.018884372 -0.050215207
0003a0 54 54 0d be e7 b3 6f bd aa 32 53 bd 56 9b c0 3c
       -0.138017 -0.058521178 -0.05156199 0.02351157
0003b0 37 b0 42 be 84 a8 12 3e e5 a0 ae bd d4 15 12 bd
       -0.19012533 0.14322096 -0.08526782 -0.03566535
0003c0 44 04 1f 3d b7 f9 92 bc 34 34 31 3d 6e 97 34 bd
       0.038822427 -0.017941339 0.043262675 -0.044089727
0003d0 b5 1b b9 3c 07 1e 59 3e c0 59 84 bd bc e4 bb 3d
       0.02259622 0.21202861 -0.06462431 0.09174487
0003e0 93 36 8f bc 62 61 a1 3d e0 a5 71 3c d5 5c a7 bc
       -0.017482078 0.078799024 0.01474902 -0.020430008
0003f0 02 94 7e bc d1 d7 9f 3d 37 98 11 3e 0c fb 58 bd
       -0.0155382175 0.078048356 0.14218222 -0.052973792

dense/bias/read:0 f4 [100]
000000 f8 f2 9d bc 1d b6 8b bb c4 84 3f 3c 89 25 04 3b
       -0.019280896 -0.004263653 0.011689369 0.0020163974
000010 f8 0c 12 bc 49 ae e6 3b 5c fb 71 3b 52 37 88 bb
       -0.008914225 0.0070398194 0.0036923504 -0.0041569853
000020 27 9b ae bc a9 69 b8 bb 95 65 37 bb ce 3d 00 bc
       -0.021314217 -0.00562783 -0.0027984132 -0.007827235
000030 11 db 8f 3b 1c b1 15 3b 3a 69 e3 3b 96 a5 f7 bb
       0.0043901284 0.002284116 0.006940034 -0.007557581
000040 a1 61 39 bc f4 35 20 3c 6b 11 fa 3a 97 01 74 bc
       -0.01131478 0.009778488 0.0019078677 -0.014892957
000050 de 97 64 bc a0 98 55 bc a1 a6 b3 bb 0f 0e d7 3b
       -0.013952224 -0.013036877 -0.00548251 0.006562955
000060 30 55 cc 3b 06 d0 fe 3b ae 39 6c 3b 9e df 9e bb
       0.006235741 0.007776263 0.0036045122 -0.0048484346
000070 e4 64 47 bc e9 fb a4 3b d8 51 91 3c 84 93 1e bc
       -0.01217005 0.005034913 0.017739221 -0.009678725
000080 61 27 23 bc b4 36 1a bc cc c7 0f bc 84 7f f9 bb
       -0.009958119 -0.009412456 -0.008775663 -0.007614078
000090 25 83 72 3c f9 2c 31 3b f4 f6 86 bb 72 07 32 bb
       0.014801775 0.0027034862 -0.0041187946 -0.0027165082
0000a0 fc 5d 32 bb 22 7f b2 bb e5 8f 43 bc fd 3c 50 3a
       -0.0027216664 -0.0054472843 -0.011936163 0.0007943658
0000b0 2c 2f ad 3b 3f 28 16 bc 95 02 80 bb 8b 8b 3c 3c
       0.0052851643 -0.009164869 -0.003906558 0.011507879
0000c0 bb 81 48 bb 04 d7 44 bc 55 69 cb 3b 2d 57 d4 bb
       -0.0030594904 -0.012014154 0.006207625 -0.0064801187
0000d0 f7 f9 0a bc b7 a7 0f 3c fc 01 80 bb c4 dc a3 bb
       -0.008482448 0.008768014 -0.0039064866 -0.0050006825
0000e0 5c c3 8b 39 54 a6 01 3b 8e 86 dc bb d3 76 1c ba
       0.000266577 0.0019782977 -0.0067299074 -0.0005968634
0000f0 bc 55 12 3c 56 e1 74 bb e7 1e 04 bb cd 4d 42 bc
       0.0089315735 -0.0037365756 -0.002016002 -0.011859369
000100 42 08 8b bb a6 3b 11 3b 3d d1 0b bc 56 6b 83 bb
       -0.004242928 0.0022160797 -0.008533773 -0.004010598
000110 3c 24 5c bc 43 b8 5c bb 4f 61 2e bc 2d a2 47 3c
       -0.013436373 -0.0033679164 -0.010643317 0.012184662
000120 6f 29 0f 3c aa ab 00 3c 0c e2 73 bc 6b ee c1 39
       0.008737906 0.007853428 -0.014885437 0.00036989464
000130 73 d0 be bb a4 81 68 bc 46 b0 42 3b 67 32 31 bc
       -0.005823189 -0.014191065 0.0029707118 -0.0108152395
000140 f9 16 f9 38 88 df e3 bb dc 12 fe ba 0b 88 ed ba
       0.00011877524 -0.0069541372 -0.0019384283 -0.0018122209
000150 05 8d 8e 3a 3b 6f 4e bc 1a cf fb bb eb 31 de 3b
       0.0010875767 -0.012599762 -0.0076846005 0.006780853
000160 5c 46 b9 bb 70 f9 53 bb d3 11 c4 3a be db 56 bc
       -0.0056541394 -0.0032344721 0.0014958925 -0.013113914
000170 19 d0 84 bc 2e ab 39 bc af 22 0e bc 25 e8 1d bc
       -0.01621251 -0.011332316 -0.008675261 -0.009637867
000180 3f 76 1b bc 38 54 ee b9 d9 80 4c bc 5d 55 32 3c
       -0.009488641 -0.00045457645 -0.012481892 0.01088461
