test/models/mood_sad-msd-musicnn-1.onnx (onnx, 82053 bytes, 4 tensors)

dense_1/kernel/read:0 f4 [100, 2]
0	0x3de5d7e2	0.11222817
1	0x3dcf84d7	0.10132759
2	0x3d5e2638	0.054235667
3	0x3d56c9d3	0.05243857
4	0x3e2d2490	0.16908479
5	0xbe0efd56	-0.13963827
6	0x3d6b9ee9	0.057524595
7	0xbde6e9b6	-0.112750456
8	0xbe56a21f	-0.20960282
9	0x3cfc69f1	0.030812236
10	0x3e47bf65	0.19506605
11	0xbd65307e	-0.05595445
12	0x3d853816	0.06504838
13	0xbdecdc50	-0.11565459
14	0xbe0a3a86	-0.13498887
15	0x3d671e16	0.056425177
16	0xbe2f4322	-0.17115453
17	0xbe500710	-0.20315194
18	0x3e06a04f	0.1314709
19	0x3e1e3036	0.15448079
20	0xbdaa6418	-0.083198726
21	0xbe045777	-0.1292399
22	0xbb92948e	-0.0044732755
23	0x3e403953	0.18771867
24	0xbe991bf1	-0.2990413
25	0x3c958736	0.01825295
26	0xbce9a982	-0.02852321
27	0xbdfaa620	-0.12238717
28	0xbcc5a3fa	-0.024126042
29	0xbd285669	-0.041098032
30	0x3d3fd920	0.046837926
31	0x3e472d0d	0.1945078
32	0xbdbb08df	-0.091325514
33	0xbd440d8b	-0.047864478
34	0xbd797e60	-0.060911536
35	0xbde2ccb0	-0.11074197
36	0xbdf96ae7	-0.12178593
37	0xbd1abad1	-0.03777582
38	0xbe97974a	-0.29607612
39	0x3def870c	0.1169568
40	0x3d712864	0.05887641
41	0x3e20574a	0.15658298
42	0x3dacc38e	0.084357366
43	0xbd6d3a30	-0.05791682
44	0x3cf4e59b	0.02989464
45	0xbbaa1c20	-0.005191341
46	0xbe001cda	-0.12511006
47	0xbb27e065	-0.0025615927
48	0x3dd3895c	0.103289336
49	0xbe6faaaa	-0.23404947
50	0xbd922162	-0.071352735
51	0xbdb6c9a5	-0.089251794
52	0xbcb75ec3	-0.022384053
53	0xbd7fdf55	-0.062468845
54	0x3d9e9a9d	0.07744334
55	0x3bac4535	0.0052572736
56	0xbd65ca87	-0.05610135
57	0x3e8c111b	0.273568
58	0x3e092515	0.13393052
59	0x3d1d8d5e	0.038464896
60	0xbdcdde85	-0.10052208
61	0xbe26ecf7	-0.16301332
62	0x3cbd7be2	0.023130361
63	0x3d8acf3b	0.06777807
64	0xbe435aa5	-0.19077547
65	0xbe06e765	-0.13174208
66	0xbe6f9e8e	-0.23400328
67	0x3e3127af	0.17300294
68	0x3d98eb53	0.074667595
69	0x3dcc9755	0.09989802
70	0x3dc8d1ba	0.09805627
71	0x3e7db87a	0.24777403
72	0xbe53792a	-0.20651689
73	0xbdaebd47	-0.085321955
74	0x3dcf1a49	0.10112435
75	0xbc4fa6ac	-0.012674015
76	0xbb931416	-0.0044884784
77	0x3dd999b1	0.106250174
78	0xbdbf5dfc	-0.09344098
79	0xbd6bd011	-0.057571474
80	0x3e1358bb	0.14389317
81	0x3e04eda7	0.12981282
82	0xbd708bf3	-0.058727216
83	0xbd2bf89a	-0.04198513
84	0xbda8e8ae	-0.08247505
85	0x3d8c68e2	0.06855942
86	0xbdee8ad2	-0.116475716
87	0x3d082aa4	0.03324379
88	0x3ddbd5fe	0.10734175
89	0x3d8b3897	0.06797903
90	0xbdc7e1af	-0.097598426
91	0x3e22b13c	0.15887922
92	0xbe1444ea	-0.14479414
93	0xba1f7944	-0.00060834386
94	0xbc481476	-0.0122119095
95	0xbc120d95	-0.008914371
96	0x3e6b2f1c	0.2296719
97	0xbe09c636	-0.13454518
98	0xbdb0ace4	-0.08626726
99	0x3d0c80c8	0.034302503
100	0x3c88e219	0.016709374
101	0xbe8fa206	-0.28053302
102	0xbe92de61	-0.28685287
103	0xbe236901	-0.15958025
104	0xbc07b3d6	-0.008282622
105	0xbc6e6e02	-0.014552595
106	0x3e5e7fd5	0.21728452
107	0x3d336c0d	0.043804217
108	0x3e3afa03	0.18259434
109	0xbdbc986c	-0.0920876
110	0x3ddaf121	0.10690523
111	0xbd3f19bb	-0.046655398
112	0x3e1fe1b6	0.15613446
113	0xbe33d0c7	-0.17560111
114	0x3e077eb6	0.1323193
115	0xbe91867d	-0.2842292
116	0xbd8b2203	-0.067935966
117	0x3db29952	0.0872065
118	0x3cce31b2	0.025170181
119	0x3dca7343	0.09885266
120	0x3dd6b5fc	0.104839295
121	0x3d0656c5	0.032797594
122	0x3c1cd93f	0.00957328
123	0xbdd16502	-0.10224344
124	0xbd45a4b7	-0.048252787
125	0xbc6845e1	-0.014176817
126	0xbd708437	-0.05871984
127	0xbc6dea24	-0.0145211555
128	0x3e31d5a1	0.17366649
129	0x3d8d7551	0.06907142
130	0x3d9855d5	0.07438246
131	0x3bd301e6	0.0064394353
132	0x3e3bf883	0.18356518
133	0x3e629f80	0.22131157
134	0xbc105877	-0.008810154
135	0x3d14c22e	0.036317997
136	0x3e568e2a	0.20952669
137	0xbde2e716	-0.110792324
138	0xbd279e3e	-0.040922396
139	0x3daa3d7a	0.08312507
140	0xbd0968c5	-0.03354718
141	0x3da09030	0.078400016
142	0x3dc01f52	0.09380974
143	0xbd69550c	-0.056965873
144	0x3d2d19db	0.042260986
145	0xbd606e05	-0.054792423
146	0xbdb548f3	-0.088518046
147	0xbe0dda76	-0.13852867
148	0x3dc0c3b6	0.09412329
149	0xbd410956	-0.047128044
150	0x3c89d1cd	0.016823674
151	0xbe5c51bd	-0.21515556
152	0xbe116154	-0.14197284
153	0xbe107cbb	-0.14110081
154	0xbe844b55	-0.25838724
155	0xbd9c5e53	-0.076351784
156	0x3cd059db	0.025433471
157	0x3e44010e	0.19141027
158	0x3bc39f32	0.0059699053
159	0x3e489a46	0.195901
160	0xbe381276	-0.17975792
161	0xbe6d1490	-0.23152375
162	0xbe3f468e	-0.18679258
163	0x3e6adda9	0.22936119
164	0xbe063994	-0.13107902
165	0xbdba3b99	-0.090933986
166	0xbc8c0d5a	-0.01709621
167	0x3df811c2	0.12112762
168	0xbe0c7dfa	-0.13719931
169	0xbe64f445	-0.22358806
170	0xbe19016a	-0.14941946
171	0xbd0c2090	-0.03421074
172	0xbe53668c	-0.20644587
173	0x3c8cd91b	0.017193368
174	0xbd6a15d7	-0.057149734
175	0xbe13c92f	-0.14432214
176	0xbd6cc2f5	-0.057803113
177	0x3e07d9e7	0.13266717
178	0xbd7f6a8a	-0.062357463
179	0xbda2dfce	-0.079528436
180	0xbdf87d60	-0.121332884
181	0x3bec72a8	0.0072158165
182	0xbea15f41	-0.31517985
183	0x3d5e6992	0.0542999
184	0xbe6a1a92	-0.22861698
185	0x3d84ccef	0.064844005
186	0xbdb5d155	-0.088778175
187	0x3dc600a2	0.096680894
188	0x3dbd6fec	0.09249863
189	0x3e43e903	0.19131856
190	0x3e03a9b8	0.12857711
191	0x3da4d3ad	0.080481865
192	0xbcd592cc	-0.026070975
193	0x3d4d701b	0.05015574
194	0x3e3608f5	0.17776854
195	0xbe82a7e2	-0.2551871
196	0xbd9eea8b	-0.07759579
197	0xbe534c6b	-0.2063462
198	0x3d67ea36	0.056619845
199	0xbe6cd70d	-0.2312891

dense_1/bias/read:0 f4 [2]
0	0x3b938304	0.0045017023
1	0xbb938304	-0.0045017023

dense/kernel/read:0 f4 [200, 100]
0	0x3da249d9	0.079242416
1	0x3da7721b	0.08176061
2	0x3d1ed04f	0.038772877
3	0x3d33afab	0.043868702
4	0x3e06a9ea	0.13150755
5	0xbdd87764	-0.10569647
6	0x3d23b124	0.039963856
7	0xbd9c0d94	-0.07619777
8	0xbe2fbdaa	-0.17162195
9	0x3d20692f	0.03916281
10	0x3e0d66ab	0.13808696
11	0xbd1b1f50	-0.03787166
12	0x3d304858	0.043037742
13	0xbdae1d6b	-0.08501705
14	0xbdad48de	-0.08461164
15	0x3ceabf7d	0.028655762
16	0xbe031a17	-0.12802921
17	0xbe049605	-0.12947853
18	0x3dbc8c71	0.092064746
19	0x3df2eaa3	0.1186116
20	0xbd35fe4d	-0.044431973
21	0xbdbaac12	-0.09114851
22	0xbc418969	-0.011812546
23	0x3e07f4c9	0.13276972
24	0xbe60fe0b	-0.2197191
25	0x3c8c43c5	0.017122159
26	0xbd133751	-0.035941426
27	0xbd86d019	-0.0658266
28	0xbc9b3ba9	-0.018949347
29	0xbd0c9120	-0.03431809
30	0x3d043259	0.032274578
31	0x3e11a2b4	0.14222223
32	0xbd860cf3	-0.065454386
33	0xbce3023a	-0.027711023
34	0xbd0db416	-0.03459557
35	0xbdaa9f7b	-0.083312
36	0xbda274e6	-0.07932453
37	0xbce3e694	-0.02781991
38	0xbe5fde15	-0.21862061
39	0x3dd34cd9	0.10317392
40	0x3cce7b5f	0.025205312
41	0x3df493c7	0.11942249
42	0x3d76806a	0.06018106
43	0xbd0326e8	-0.032019526
44	0x3c84ac27	0.01619537
45	0x3c8da38e	0.017289903
46	0xbdbd295d	-0.09236405
47	0xbae71e32	-0.00176329
48	0x3d8ac3df	0.06775641
49	0xbe1b6707	-0.1517602
50	0xbd4afd8e	-0.049558215
51	0xbd65bf14	-0.05609043
52	0xbc9e8fa0	-0.019355595
53	0xbd07a1d2	-0.03311331
54	0x3d63a581	0.05557776
55	0x3c88831a	0.016664077
56	0xbd11ad8e	-0.035565905
57	0x3e3c95c4	0.18416506
58	0x3db2558a	0.087077215
59	0x3d3dd83a	0.046348788
60	0xbd6e9a3d	-0.05825256
61	0xbe03e1ee	-0.12879154
62	0x3c9c312f	0.019066421
63	0x3d78c138	0.060731143
64	0xbe135b17	-0.14390217
65	0xbdaf4f4c	-0.085600466
66	0xbe2b179e	-0.16708228
67	0x3e076cd4	0.13225108
68	0x3d630829	0.055427704
69	0x3d93f18b	0.07223805
70	0x3dbc324e	0.09189282
71	0x3e2d656f	0.16933225
72	0xbe160f0a	-0.14654174
73	0xbd9d2e37	-0.076748304
74	0x3d8abc17	0.067741565
75	0xbbec8a30	-0.0072186217
76	0xbbda9535	-0.006670619
77	0x3db431d5	0.08798567
78	0xbd8393d1	-0.06424678
79	0xbccd9856	-0.025097053
80	0x3dd07793	0.10179057
81	0x3dd49075	0.103791155
82	0xbd3d3f0f	-0.046202715
83	0xbcd28e01	-0.025702478
84	0xbd71f2e4	-0.05906953
85	0x3d6d3d4a	0.057919778
86	0xbda3d145	-0.07998899
87	0x3d0af475	0.03392454
88	0x3db4c46e	0.088265285
89	0x3d7000dc	0.05859457
90	0xbd6f84ee	-0.05847638
91	0x3df7f959	0.12108106
92	0xbde47ac3	-0.111562274
93	0x3c907737	0.017634971
94	0xbcbb8860	-0.022892177
95	0x3b750c89	0.0037391505
96	0x3e278273	0.16358356
97	0xbdb75271	-0.08951271
98	0xbd8add10	-0.067804456
99	0x3ce85b5c	0.028363876
100	0x3d0d62c0	0.034518003
101	0xbe468aca	-0.19388881
102	0xbe3809c5	-0.17972477
103	0xbddb52d6	-0.10709159
104	0x3a1ea5c3	0.0006051922
105	0x3bb8b1b6	0.005636419
106	0x3e2e266d	0.17006846
107	0x3c67d20e	0.014149202
108	0x3dfc193b	0.123095
109	0xbd6f99a7	-0.058496144
110	0x3dbeabf7	0.093101434
111	0xbd44418d	-0.047914077
112	0x3dd354a0	0.10318875
113	0xbdfbf95d	-0.12303422
114	0x3dd44aa6	0.103658006
115	0xbe58fe54	-0.21190768
116	0xbd8ac986	-0.06776719
117	0x3db33cbb	0.08751818
118	0xbb075755	-0.002065142
119	0x3d7c9f05	0.06167509
120	0x3d90870e	0.0705701
121	0x3d1e5169	0.038651858
122	0x3b941eef	0.004520289
123	0xbd9b7bdd	-0.075919844
124	0xbcb151ba	-0.021645416
125	0xbc22ccb5	-0.009936501
126	0xbd6be0b4	-0.05758734
127	0x3cd631a3	0.026146716
128	0x3dbde287	0.09271722
129	0x3da73f29	0.08166344
130	0x3d89a52b	0.067209564
131	0x3bba13e8	0.0056786425
132	0x3de61be7	0.11235791
133	0x3e2190d7	0.15777908
134	0xbc5fef86	-0.013667947
135	0x3c4dd3de	0.01256272
136	0x3e13c1fd	0.1442947
137	0xbd5a12bf	-0.053240534
138	0xbd1dd49a	-0.03853283
139	0x3d56966b	0.052389544
140	0xbabe3e05	-0.0014514333
141	0x3d2c0d85	0.04200508
142	0x3d737d99	0.05944595
143	0xbd53280c	-0.051551864
144	0x3d172310	0.036898673
145	0xbcfd05e7	-0.030886604
146	0xbdafd0b4	-0.08584729
147	0xbd96b7bd	-0.07359264
148	0x3d5678c8	0.05236128
149	0xbd0decef	-0.034649786
150	0x3ccc6cfb	0.02495431
151	0xbe22d612	-0.15901974
152	0xbdced511	-0.10099233
153	0xbda2e43a	-0.07953687
154	0xbe3bb0ab	-0.18329112
155	0xbcf47867	-0.029842569
156	0x3cf01c9a	0.029310513
157	0x3e137f99	0.14404143
158	0xbc4f1534	-0.012639333
159	0x3e1adabc	0.15122503
160	0xbdf06bd4	-0.117393166
161	0xbe12880e	-0.14309713
162	0xbe2025ee	-0.15639469
163	0x3e414470	0.18873763
164	0xbdc0f4ae	-0.09421669
165	0xbd1ca6fc	-0.038245186
166	0xbcb41d5c	-0.021986656
167	0x3dbc467f	0.091931336
168	0xbdb17dd1	-0.08666576
169	0xbe2d6942	-0.16934684
170	0xbde9e061	-0.1141975
171	0xbb18db25	-0.002332398
172	0xbe08ecdc	-0.13371605
173	0x3b9f34aa	0.004858573
174	0xbd31c64e	-0.04340201
175	0xbdb2773e	-0.0871415
176	0xbd62c798	-0.05536613
177	0x3ddd2af4	0.10799208
178	0xbd32533e	-0.043536417
179	0xbd821e4f	-0.06353437
180	0xbdc11cc4	-0.09429315
181	0x3c9cf808	0.01916124
182	0xbe6deea0	-0.2323556
183	0x3ce89b86	0.028394472
184	0xbe1875ad	-0.1488864
185	0x3d305bd3	0.04305632
186	0xbd99829e	-0.074956164
187	0x3dca1600	0.098674774
188	0x3d96f85a	0.07371588
189	0x3e1afa6a	0.15134588
190	0x3db15f14	0.08660713
191	0x3d4914c3	0.049092066
192	0xbc8ff79a	-0.01757412
193	0x3cdd682b	0.02702721
194	0x3dc46a55	0.09590594
195	0xbe2c2b2f	-0.16813348
196	0xbdaefabf	-0.0854392
197	0xbe0781bc	-0.13233083
198	0x3d0a2f91	0.03373677
199	0xbe125c29	-0.14292969
200	0x3e031254	0.1279996
201	0xbe02a836	-0.1275948
202	0xbdd32c03	-0.10311129
203	0xbd283dfb	-0.041074734
204	0xbc8e3daa	-0.017363388
205	0xbe113a00	-0.14182281
206	0x3d87d40f	0.06632244
207	0x3cd96492	0.026537213
208	0xbe27495a	-0.16336575
209	0x3d361d0e	0.044461302
210	0xbabc8acd	-0.0014384628
211	0x3e3a60a6	0.18200931
212	0x3d4da554	0.050206497
213	0xbe3b0e29	-0.1826712
214	0xbe326b11	-0.17423655
215	0xbe0d5334	-0.1380127
216	0xbcc6a978	-0.02425073
217	0xbc8b62f5	-0.01701496
218	0x3d3f8e1d	0.04676639
219	0x3cf9f719	0.030513333
220	0x3d85098e	0.06495963
221	0x3e2f42de	0.17115352
222	0xbe1730a3	-0.14764647
223	0xbd630f08	-0.055434257
224	0xbdaf22e6	-0.08551578
225	0x3dddf274	0.1083726
226	0xbd0df969	-0.034661684
227	0xbc6551ca	-0.013996551
228	0xbd637598	-0.055532068
229	0xbe189178	-0.14899242
230	0xbc0ff674	-0.008786786
231	0xbcdb8617	-0.026797337
232	0xbdf201b9	-0.11816735
233	0xbd7fa48f	-0.062412795
234	0xbcf41545	-0.029795298
235	0x3d28a490	0.041172564
236	0xbe56dd57	-0.20982872
237	0x3e0ece2a	0.13945833
238	0xbdcb2f93	-0.099211834
239	0xbd07086b	-0.032967012
240	0x3d360b79	0.044444535
241	0xbc80a2b0	-0.015702575
242	0x3d02c5be	0.031926863
243	0xbd4d22c3	-0.05008198
244	0x3cd9e42a	0.026598055
245	0x3e4a0237	0.19727407
246	0xbd9574b3	-0.07297649
247	0x3db4b48c	0.08823499
248	0xbb8d30b8	-0.0043087862
249	0x3d9eb395	0.07749096
250	0x3cc021a6	0.023453545
251	0xbd3903dc	-0.045169696
252	0xbd00c95f	-0.031442042
253	0x3da28536	0.07935564
254	0x3e0e6712	0.13906506
255	0xbd3970ec	-0.045273706

dense/bias/read:0 f4 [100]
0	0xbc48a1b1	-0.0122455815
1	0x3af6d5d0	0.0018832032
2	0x3ba03f68	0.004890371
3	0x3bd30e13	0.0064408868
4	0xbc3b31c1	-0.0114254365
5	0x3b074cd0	0.002064515
6	0xba28c010	-0.0006437311
7	0x3a878e29	0.001034205
8	0xbb3c2bc7	-0.0028712617
9	0xbc4e92af	-0.012608214
10	0x3b8ff571	0.0043932726
11	0xbb0c99ba	-0.0021453933
12	0xbc678ca7	-0.014132655
13	0x3bbdab3b	0.0057882345
14	0xbc1d4228	-0.009598292
15	0x3bd07030	0.00636103
16	0xbbfa25aa	-0.0076338844
17	0xbbb5c0bf	-0.0055466588
18	0x3b4315ac	0.0029767556
19	0xbb53ca66	-0.0032316684
20	0xbc491919	-0.01227405
21	0x3ad7d134	0.0016465546
22	0x3bd761a5	0.0065729194
23	0xbc623ae5	-0.013807987
24	0x3c2762e7	0.010216451
25	0x3bcb78ec	0.0062094834
26	0x3bbc778e	0.0057515567
27	0x3c05a3c2	0.008156719
28	0x3b2650a3	0.0025377653
29	0xbb57ed55	-0.0032947857
30	0xbc39745b	-0.011319245
31	0xbb98d683	-0.0046642437
32	0xbb7c6bbc	-0.0038516363
33	0xbc0e6c2a	-0.0086927805
34	0xbb8c37a7	-0.004279095
35	0x3c23ac0f	0.009989752
36	0xbc07a1f9	-0.008278363
37	0x3ba290a1	0.0049610888
38	0xbb2844d9	-0.0025675802
39	0xbc45a924	-0.012064252
40	0xbbdf02a4	-0.0068057347
41	0xbbe394d0	-0.00694523
42	0xbc84658e	-0.016161706
43	0xb98e2e31	-0.00027118766
44	0xbbe8d34c	-0.0071052667
45	0xbb0cf54b	-0.002150851
46	0xbb8eb6b2	-0.004355275
47	0xbc828eb2	-0.015937183
48	0x3b47ce39	0.0030487909
49	0xbb82200f	-0.003971107
50	0x3b587be4	0.003303283
51	0xbc11cb24	-0.00889853
52	0xbc2a807d	-0.010406611
53	0x3b30a007	0.0026950852
54	0xba12b40e	-0.0005596288
55	0x3b98af01	0.004659534
56	0xbbad21fa	-0.0052835913
57	0x3b9461de	0.0045282682
58	0xbb37bc8d	-0.002803597
59	0xbc92acb2	-0.017904613
60	0x38beb558	9.093684e-05
61	0x3c054b47	0.008135623
62	0x3bd6515b	0.00654046
63	0xbc92bf9e	-0.017913636
64	0x3c005c12	0.007834451
65	0x3a5c0cd7	0.0008394247
66	0xbc3976fb	-0.011319871
67	0xbc4aba2e	-0.01237349
68	0x3a906fd0	0.0011019651
69	0xbb8c44bd	-0.004280655
70	0xbbb64e63	-0.0055635436
71	0xbaa408d8	-0.0012514843
72	0xbabbee8f	-0.0014338064
73	0x3c53c1b8	0.012924604
74	0x3c22fa15	0.0099473195
75	0x3b2b6304	0.0026151547
76	0xbc1241b2	-0.008926796
77	0xbc569dbc	-0.01309913
78	0xbc40cb1f	-0.011767178
79	0xbc6e3e2c	-0.01454119
80	0x3b871f32	0.004123592
81	0xbc207602	-0.00979376
82	0xbbc1653a	-0.0059019597
83	0xbc21a36e	-0.009865625
84	0xbaf6c11a	-0.0018825859
85	0xbb189594	-0.0023282515
86	0xbc1c8751	-0.009553746
87	0xba90f007	-0.0011057862
88	0xbc5c9ee7	-0.01346562
89	0x3b0ce2c5	0.002149747
90	0xbc871855	-0.016491095
91	0x3c00c749	0.007860013
92	0xbc0cae9f	-0.008586555
93	0xbb8f170b	-0.0043667606
94	0xbb19ea4d	-0.0023485601
95	0x3c2f879c	0.010713484
96	0xba93337a	-0.0011230551
97	0x3bbaa076	0.005695398
98	0x3c351b7e	0.011053918
99	0xba58416a	-0.00082494935
