test/models/mood_relaxed-msd-musicnn-1.onnx (onnx, 82057 bytes, 4 tensors)

dense_1/kernel/read:0 f4 [100, 2]
0	0x3de890a8	0.11355716
1	0x3dcccb3a	0.099997
2	0x3d8c2f97	0.068450145
3	0x3d1c8f97	0.038222875
4	0x3e234a2b	0.15946262
5	0xbe052305	-0.1300164
6	0x3d8ad564	0.06778982
7	0xbdfbef3b	-0.12301489
8	0xbe5c72e9	-0.2152821
9	0x3d157a47	0.036493566
10	0x3e44de00	0.19225311
11	0xbd59aca1	-0.053143147
12	0x3d93c7e2	0.07215859
13	0xbdfb6be9	-0.122764416
14	0xbe149fd8	-0.145141
15	0x3d8859e0	0.06657767
16	0xbe2bda64	-0.16782528
17	0xbe536dfa	-0.20647421
18	0x3df33900	0.11876106
19	0x3e2b2f86	0.16717348
20	0xbd9dc162	-0.077029005
21	0xbe0aa7fb	-0.13540642
22	0x3bc34cad	0.005960068
23	0x3e3589cc	0.17728347
24	0xbe950f33	-0.2911316
25	0x3c298303	0.010346177
26	0xbd067cf4	-0.03283401
27	0xbdf1d100	-0.11807442
28	0xbcc447a9	-0.023959951
29	0xbd290403	-0.04126359
30	0x3d285cc6	0.0411041
31	0x3e4d0bb6	0.20023999
32	0xbdb2155b	-0.086954795
33	0xbd55f30e	-0.05223375
34	0xbd70b765	-0.05876865
35	0xbde72fc5	-0.11288408
36	0xbdff47e8	-0.12464887
37	0xbd0efdf6	-0.034910165
38	0xbe98e40c	-0.29861486
39	0x3df4bad0	0.11949694
40	0x3d8fb9a1	0.07017828
41	0x3e14bef7	0.14525972
42	0x3db42370	0.08795822
43	0xbd7bfafd	-0.061518658
44	0x3cd29954	0.025707878
45	0xba83bc41	-0.0010050611
46	0xbe072978	-0.13199413
47	0x3b8db56c	0.0043246057
48	0x3ddda359	0.10822172
49	0xbe74b762	-0.2389808
50	0xbd933e6c	-0.071896404
51	0xbdb5abe8	-0.08870679
52	0xbc78365a	-0.015149677
53	0xbd8ebf63	-0.06970098
54	0x3da28c42	0.07936908
55	0x3b5a3de8	0.003330106
56	0xbd2cb758	-0.042167038
57	0x3e84edbd	0.2596263
58	0x3e0a473d	0.13503738
59	0x3d190380	0.037356853
60	0xbdc38a80	-0.09547901
61	0xbe2c164d	-0.16805382
62	0x3c7be925	0.01537541
63	0x3d9aafe4	0.0755308
64	0xbe4ce442	-0.20008948
65	0xbdfaba74	-0.12242594
66	0xbe6ee653	-0.23330049
67	0x3e306f89	0.17230047
68	0x3d85332e	0.065039024
69	0x3de04cd2	0.10952152
70	0x3de1d264	0.11026457
71	0x3e71377c	0.23556322
72	0xbe69d7ae	-0.22836182
73	0xbd7d0104	-0.061768547
74	0x3dea365f	0.11436152
75	0xbcd4458f	-0.025912074
76	0xbbd3e6a4	-0.0064667035
77	0x3ddda612	0.10822691
78	0xbdfd0c9b	-0.1235592
79	0xbce0de4c	-0.02744975
80	0x3dfe25ef	0.12409579
81	0x3e1932e6	0.14960822
82	0xbd3b4542	-0.045720346
83	0xbd613d6c	-0.054990217
84	0xbda41afa	-0.08012958
85	0x3d879b3f	0.06621408
86	0xbdef78a2	-0.11692931
87	0x3d0a07e1	0.03369892
88	0x3ddde766	0.108351514
89	0x3d89268f	0.066968076
90	0xbdc13c1d	-0.09435294
91	0x3e1f5e3c	0.15563291
92	0xbe0fe98f	-0.1405394
93	0xbb9f5417	-0.004862319
94	0xbbd9dff0	-0.00664901
95	0xbc6d31ca	-0.014477203
96	0x3e62a677	0.22133814
97	0xbe013db6	-0.12621197
98	0xbdc7a01c	-0.09747335
99	0x3d3a67b6	0.045509063
100	0x3cb93b04	0.022611149
101	0xbe92a73d	-0.28643218
102	0xbe91757b	-0.28409943
103	0xbe263a0d	-0.16233082
104	0xbc2e11d7	-0.010624371
105	0xbc480d8f	-0.012210264
106	0x3e5d1b46	0.21592435
107	0x3d38fd22	0.04516328
108	0x3e42c8e4	0.19021946
109	0xbdcc36f8	-0.09971422
110	0x3de35699	0.111005016
111	0xbd4fe595	-0.050756056
112	0x3e1e4cc8	0.15458977
113	0xbe323bc8	-0.17405617
114	0x3de83669	0.11338503
115	0xbe87d493	-0.2652937
116	0xbd90befe	-0.07067679
117	0x3db83645	0.08994726
118	0x3cad91f4	0.02118776
119	0x3dd29aba	0.10283418
120	0x3dddb024	0.10824612
121	0x3cf0c377	0.02939008
122	0x3c816d83	0.01579929
123	0xbdde2425	-0.10846738
124	0xbd0bafac	-0.03410308
125	0xbce80c43	-0.02832616
126	0xbd86da6e	-0.06584631
127	0xbbf24097	-0.0073929536
128	0x3e28d584	0.164877
129	0x3d9f73e6	0.07785778
130	0x3d9d6b60	0.07686496
131	0x3b81a3ff	0.0039563174
132	0x3e2d967d	0.16951938
133	0x3e70ffc0	0.23535061
134	0xbbdc4a6f	-0.0067227404
135	0x3d0c34f1	0.034230176
136	0x3e5aa71e	0.21352813
137	0xbdeb195d	-0.11479447
138	0xbd223842	-0.039604433
139	0x3da78a64	0.08180693
140	0xbcd7e33a	-0.026353467
141	0x3d91d3e7	0.07120495
142	0x3dcd3130	0.100191474
143	0xbd81bc90	-0.063347936
144	0x3d0481ea	0.03235046
145	0xbd37d5e3	-0.044881713
146	0xbde81f30	-0.113340735
147	0xbde8dbe5	-0.113700666
148	0x3dae28dc	0.08503887
149	0xbd1bd70d	-0.038046885
150	0x3d187c57	0.037227955
151	0xbe71360d	-0.23555775
152	0xbe1e0b73	-0.15434055
153	0xbe03d1fe	-0.12873074
154	0xbe805145	-0.25062004
155	0xbdac43d7	-0.08411377
156	0x3cdbf882	0.026851896
157	0x3e428859	0.18997325
158	0x3c9320cc	0.017959975
159	0x3e3c52e6	0.18390998
160	0xbe3c8500	-0.1841011
161	0xbe68a0ca	-0.22717586
162	0xbe38a7d0	-0.18032765
163	0x3e643ec7	0.22289573
164	0xbdfa212e	-0.1221336
165	0xbdcc8bf4	-0.099876314
166	0xbb2cbc0a	-0.0026357197
167	0x3dda73b0	0.10666597
168	0xbe0d20c7	-0.13782035
169	0xbe645105	-0.22296531
170	0xbe26d69c	-0.16292804
171	0xbca99207	-0.020699514
172	0xbe59acf1	-0.21257378
173	0x3cbf1074	0.023323275
174	0xbd6d94bf	-0.058003183
175	0xbe12e886	-0.14346513
176	0xbd8170ec	-0.06320366
177	0x3e0d612d	0.13806601
178	0xbd56130c	-0.05226426
179	0xbdb78a3e	-0.089619145
180	0xbdead964	-0.11467245
181	0x3a125072	0.00055814453
182	0xbe96c569	-0.29447487
183	0x3d099e71	0.033598367
184	0xbe816b70	-0.2527728
185	0x3db64814	0.089004666
186	0xbdc5b640	-0.09653902
187	0x3dd5e56e	0.10444151
188	0x3dc1748e	0.09446059
189	0x3e41e641	0.18935491
190	0x3e067864	0.13131863
191	0x3d9f354b	0.07773837
192	0xbcd14b23	-0.025548523
193	0x3d4b4c00	0.049633026
194	0x3e172385	0.14759643
195	0xbe666a16	-0.22501406
196	0xbdbbcd1a	-0.091699794
197	0xbe44da4a	-0.19223896
198	0x3d78cff3	0.06074519
199	0xbe711024	-0.23541313

dense_1/bias/read:0 f4 [2]
0	0x3bfd6452	0.0077329064
1	0xbbfd6446	-0.007732901

dense/kernel/read:0 f4 [200, 100]
0	0x3db7844a	0.08960779
1	0x3d82230d	0.06354342
2	0x3d3648a7	0.04450288
3	0x3d792436	0.06082555
4	0x3dfb2143	0.122622035
5	0xbdb19acc	-0.08672103
6	0x3d2245f4	0.039617494
7	0xbd97694c	-0.07393131
8	0xbe329e30	-0.17443156
9	0x3d05d284	0.032671466
10	0x3e05165b	0.12996809
11	0xbd5046bb	-0.050848704
12	0x3d1c83c2	0.03821159
13	0xbd97d540	-0.07413721
14	0xbdb43981	-0.088000305
15	0x3d328936	0.043587886
16	0xbe04f88d	-0.1298544
17	0xbe082e62	-0.13298944
18	0x3de6b896	0.11265676
19	0x3de97629	0.113994904
20	0xbd4b8932	-0.049691387
21	0xbdba2886	-0.090897605
22	0xbc0c79d1	-0.008573965
23	0x3e06e7b0	0.1317432
24	0xbe5f6389	-0.21815313
25	0x3d0e76bb	0.0347812
26	0xbce04f20	-0.02738148
27	0xbd844d31	-0.064600356
28	0xbb87c8b3	-0.0041437983
29	0xbcee0292	-0.02905396
30	0x3cd420f5	0.025894621
31	0x3e110405	0.1416169
32	0xbda2dcba	-0.079522565
33	0xbd222e3e	-0.03959488
34	0xbd4f80c1	-0.0506599
35	0xbd995d6d	-0.07488523
36	0xbd9a72dc	-0.07541439
37	0xbc997009	-0.01873018
38	0xbe592598	-0.21205747
39	0x3dd677b5	0.10472051
40	0x3d1cbf54	0.038268402
41	0x3e037ea0	0.12841272
42	0x3d57409d	0.052551854
43	0xbd06ea04	-0.03293802
44	0x3c24b6e7	0.010053373
45	0x3c58e0c1	0.013237179
46	0xbdc8e41f	-0.09809136
47	0xbba2899c	-0.004960252
48	0x3d95ea4d	0.0732008
49	0xbe24e032	-0.16101149
50	0xbd0bebb6	-0.03416034
51	0xbd9724b6	-0.07380049
52	0xbbfeab2a	-0.007771869
53	0xbcf21f8d	-0.02955606
54	0x3d6d50f4	0.05793853
55	0x3be7faf7	0.007079478
56	0xbd080d64	-0.033215895
57	0x3e525f17	0.20544086
58	0x3d9ecf66	0.07754402
59	0x3d19e86e	0.037575178
60	0xbd79def7	-0.06100365
61	0xbdf87486	-0.121316
62	0x3c376a70	0.01119481
63	0x3d67c6b4	0.056585982
64	0xbdfca1e6	-0.12335567
65	0xbdb87a64	-0.09007719
66	0xbe2a920c	-0.16657275
67	0x3df9d454	0.121987015
68	0x3d4820b1	0.048859302
69	0x3d96bc20	0.07360101
70	0x3d7dd60c	0.06197171
71	0x3e40d6e8	0.1883198
72	0xbe1abe02	-0.15111545
73	0xbd806d47	-0.06270843
74	0x3d7fe27b	0.062471848
75	0x3caa2d30	0.0207735
76	0xbcc6750d	-0.024225736
77	0x3db7bf37	0.08972018
78	0xbda20955	-0.07911936
79	0xbcaa1978	-0.020764098
80	0x3de5b519	0.11216182
81	0x3da17780	0.07884121
82	0xbcf56765	-0.029956529
83	0xbd20e354	-0.039279297
84	0xbd774d93	-0.060376715
85	0x3d6eda52	0.058313675
86	0xbdc619e0	-0.09672904
87	0x3d011382	0.031512745
88	0x3d7cb185	0.061692733
89	0x3d989827	0.07450896
90	0xbd8fe479	-0.070259996
91	0x3dec4f28	0.11538535
92	0xbdfac527	-0.12244635
93	0x3c7aa2e5	0.015297626
94	0xbcf9d092	-0.030494962
95	0x3c8c6e46	0.017142426
96	0x3e362538	0.17787635
97	0xbdd30926	-0.10304479
98	0xbd53cdee	-0.05171006
99	0x3ce6d00e	0.02817538
100	0x3d0c153a	0.03419993
101	0xbe5366e5	-0.2064472
102	0xbe41fc8d	-0.18943997
103	0xbdda486e	-0.10658346
104	0x39c1aaa8	0.00036938977
105	0xba129951	-0.0005592304
106	0x3e1f86b7	0.15578733
107	0x3cd9a17e	0.026566263
108	0x3e09c4ed	0.13454027
109	0xbd90609f	-0.07049679
110	0x3dba53cc	0.09098014
111	0xbd19ea34	-0.03757687
112	0x3dcf759e	0.101298556
113	0xbdf2b2c8	-0.11850506
114	0x3dbf7fd1	0.09350551
115	0xbe4887cf	-0.19583057
116	0xbd994928	-0.074846566
117	0x3d9b7461	0.07590557
118	0x3c9705c3	0.018435365
119	0x3d9f002c	0.07763705
120	0x3db4c61e	0.0882685
121	0x3cbc45c4	0.022982486
122	0x3b56ba76	0.0032764948
123	0xbd9618c5	-0.07328943
124	0xbccbe4e5	-0.024889419
125	0xbbb6a7b6	-0.005574192
126	0xbd444134	-0.047913745
127	0x3c8a3f8a	0.016876
128	0x3df1233d	0.11774299
129	0x3d84088b	0.06446942
130	0x3d891761	0.06693912
131	0x3c3a4f30	0.011371419
132	0x3ddb06c8	0.10694653
133	0x3e241930	0.16025233
134	0xbc797cbc	-0.015227493
135	0x3cfb8f0e	0.030707862
136	0x3e1d3320	0.15351534
137	0xbd8fbdde	-0.07018636
138	0xbd0cd1e6	-0.034379862
139	0x3d81d41c	0.06339285
140	0xbc0967a0	-0.0083865225
141	0x3d54d178	0.051957577
142	0x3d6274f8	0.05528733
143	0xbd471405	-0.048603076
144	0x3cfd6bb2	0.030935142
145	0xbc9a80d6	-0.018860262
146	0xbd9ae03e	-0.07562302
147	0xbda23d22	-0.079218164
148	0x3d5ac09c	0.053406343
149	0xb934cb45	-0.00017241861
150	0x3d02fee6	0.03198137
151	0xbe2807f6	-0.16409287
152	0xbdbae8a8	-0.09126407
153	0xbdb7a72a	-0.08967431
154	0xbe45484f	-0.19265865
155	0xbd1c4f66	-0.038161658
156	0x3cc2dd3e	0.023787137
157	0x3e0e2368	0.13880694
158	0x3c17deb8	0.009269409
159	0x3e1aca72	0.1511629
160	0xbdf0c23c	-0.11755797
161	0xbe11467f	-0.14187048
162	0xbe01ea40	-0.12687016
163	0x3e34aca4	0.17643982
164	0xbdcd45be	-0.10023068
165	0xbd7aef27	-0.06126323
166	0xbcc7d259	-0.024392294
167	0x3dd0b73b	0.101911984
168	0xbdeab9f4	-0.11461249
169	0xbe23e708	-0.160061
170	0xbdcb48b6	-0.09925978
171	0xbc3c7d8e	-0.011504544
172	0xbe05c159	-0.13062038
173	0x3cd604a8	0.026125267
174	0xbcd9f78b	-0.026607295
175	0xbdb46812	-0.08808912
176	0xbd75dd92	-0.06002576
177	0x3de860cd	0.11346588
178	0xbd0ad349	-0.033892903
179	0xbd70f21b	-0.05882464
180	0xbd9cb3ae	-0.07651459
181	0x3ad6d621	0.001639072
182	0xbe657cce	-0.2241089
183	0x3d38fab3	0.04516096
184	0xbe2a6a73	-0.1664217
185	0x3d2d210a	0.042267837
186	0xbd9b1d2c	-0.075739235
187	0x3dd65b9f	0.10466694
188	0x3d432770	0.047645032
189	0x3e233ed3	0.15941934
190	0x3da56439	0.080757566
191	0x3d6f3498	0.058399767
192	0xbd08efb3	-0.03343172
193	0x3d3f3da4	0.046689644
194	0x3dd52d1c	0.104089946
195	0xbe270156	-0.16309103
196	0xbd9ecc35	-0.07753793
197	0xbe0bd087	-0.13653766
198	0x3cded441	0.02720082
199	0xbe1cf6f2	-0.15328577
200	0x3e08d421	0.13362171
201	0xbe18f70a	-0.14937988
202	0xbdcd8532	-0.100351706
203	0xbcc57e51	-0.024108084
204	0xbcb168ca	-0.021656413
205	0xbe0daee3	-0.13836245
206	0x3da5cf61	0.08096195
207	0xbc4437de	-0.01197621
208	0xbe30d637	-0.17269216
209	0x3d1c3689	0.038137946
210	0x3a0eed85	0.0005452263
211	0x3e39170a	0.18075195
212	0x3d65bda2	0.05608905
213	0xbe3e82e9	-0.18604626
214	0xbe23fffb	-0.16015618
215	0xbe0850c1	-0.13312055
216	0xbc647d2d	-0.01394586
217	0xbcbb7bff	-0.022886274
218	0x3d155d76	0.036466084
219	0x3d2449d0	0.040109456
220	0x3d66ff14	0.056395605
221	0x3e2561d1	0.16150595
222	0xbe18b9c4	-0.14914614
223	0xbd5c5d4e	-0.05379992
224	0xbdd1c6ad	-0.102429725
225	0x3dd48111	0.1037618
226	0xbcb6d1af	-0.022316782
227	0xbd11d061	-0.035599116
228	0xbdb67c47	-0.08910423
229	0xbe1c528b	-0.15265863
230	0xbb1c1008	-0.0023813266
231	0xbd0247bd	-0.031806696
232	0xbe0af0c6	-0.1356841
233	0xbd7068be	-0.05869364
234	0xbd2e830b	-0.04260544
235	0x3d0bc4e1	0.034123305
236	0xbe3fd057	-0.18731819
237	0x3e16edac	0.14739102
238	0xbdc77aea	-0.09740241
239	0xbd58e0d1	-0.052948777
240	0x3c966edc	0.018363409
241	0xbcbce2e4	-0.023057409
242	0x3d21eccf	0.03953248
243	0xbd354768	-0.04425755
244	0x3cf45042	0.029823426
245	0x3e3235d2	0.17403343
246	0xbdb60af2	-0.088888064
247	0x3dabdc86	0.08391671
248	0x3bdd2fa6	0.006750065
249	0x3db1d095	0.08682362
250	0x3c10abaf	0.008829995
251	0xbd306046	-0.043060564
252	0xbce518aa	-0.027965862
253	0x3dc397c1	0.09550429
254	0x3e159e85	0.14611252
255	0xbd074664	-0.033026114

dense/bias/read:0 f4 [100]
0	0xbcd46606	-0.025927555
1	0xbbdc4836	-0.0067224754
2	0xb9a3d89d	-0.00031251172
3	0x3c25a150	0.010109261
4	0xbb6f731a	-0.0036537112
5	0x3b85f5a9	0.004088123
6	0x3c9c8ded	0.019110644
7	0xbc348a62	-0.011019321
8	0xbd111430	-0.035419643
9	0xbc454909	-0.012041339
10	0x38a76390	7.9817255e-05
11	0xbc1aeaf4	-0.009455431
12	0xbb65f228	-0.0035086963
13	0x3bca1eb3	0.0061682104
14	0xbba71918	-0.005099427
15	0xbb05597a	-0.0020347522
16	0x3b284cc7	0.0025680528
17	0xbbeb56ff	-0.0071820016
18	0xbb143d0e	-0.00226194
19	0xbc10256b	-0.008797984
20	0xbc52725f	-0.012844651
21	0x3b93832f	0.0045017223
22	0x3c0b609c	0.00850692
23	0xbc885ef1	-0.016646834
24	0x3b88e9c6	0.0041782586
25	0xba5aa027	-0.00083399046
26	0x3afd710a	0.0019336056
27	0xbb1d3c1f	-0.0023992134
28	0xbc94f433	-0.01818285
29	0x3a011be8	0.0004925118
30	0xbc16058e	-0.009156598
31	0xbc580fce	-0.013187362
32	0x3bdc21cd	0.0067178966
33	0xbc5989ba	-0.0132774655
34	0xbba30736	-0.004975225
35	0xbc1aa3d2	-0.009438472
36	0xbbb11e84	-0.005405249
37	0x3ab8733c	0.0014072428
38	0xbbf4c07c	-0.007469235
39	0xbca44f6d	-0.020057404
40	0xbb27451d	-0.0025523372
41	0xbc3a03ec	-0.011353474
42	0xbb4f6e83	-0.0031651563
43	0x3ae1df08	0.0017232606
44	0xbb1435aa	-0.0022614994
45	0xbc80948a	-0.015695829
46	0xbca5ac17	-0.02022366
47	0xbc66bce2	-0.014083119
48	0xbb238b78	-0.0024954956
49	0xbc7cf75d	-0.015439835
50	0x3b92ca1a	0.004479659
51	0x3b7c9620	0.003854163
52	0xbca2b5bf	-0.019862054
53	0x3c1fdc00	0.009757042
54	0x3c955fa0	0.018234074
55	0x3b9fd8ee	0.004878155
56	0xbba0975b	-0.0049008555
57	0x3bea4148	0.0071488954
58	0xbc86f555	-0.016474405
59	0xbc9f6bdd	-0.019460613
60	0x39b2b50b	0.00034085693
61	0x3b8884be	0.0041662147
62	0xbca365e2	-0.019946042
63	0xbb45cda1	-0.0030182379
64	0x3c61c12a	0.013778964
65	0x3ca36699	0.019946383
66	0xbc59b5db	-0.013287987
67	0xbc88f94b	-0.016720435
68	0x3c3f8d4e	0.0116914045
69	0xbbed09a0	-0.0072338134
70	0xbc0a1dd1	-0.00842996
71	0x3b2e3044	0.0026579062
72	0xbc0f66ca	-0.008752534
73	0xbc561145	-0.013065641
74	0x3c02c6d1	0.007981972
75	0x3c0aea4e	0.008478714
76	0xbc8166aa	-0.015796024
77	0xbc88a22e	-0.016678896
78	0xbc8deef9	-0.017325865
79	0xbb836c40	-0.004010707
80	0xbc213217	-0.0098386025
81	0xbc0f8fba	-0.008762294
82	0xbbeb0cf3	-0.0071731745
83	0xbc0d23dd	-0.0086145075
84	0x3c03e323	0.008049759
85	0xbc02d967	-0.007986403
86	0xbb8a2e90	-0.0042169765
87	0xbc2c8ade	-0.010531155
88	0xbbbbe906	-0.0057345657
89	0xbbc3a39f	-0.005970433
90	0xbc1a3a23	-0.009413275
91	0x3a8a958a	0.001057313
92	0x3c372cac	0.011180084
93	0xbca3c5d6	-0.019991796
94	0xbc0522f1	-0.008126006
95	0x3bc9f15c	0.0061628055
96	0xbb09b2f1	-0.0021011198
97	0x3b2ff384	0.0026848027
98	0x3c519688	0.012792237
99	0x399facda	0.00030455628
