test/models/mood_happy-msd-musicnn-1.onnx (onnx, 82055 bytes, 4 tensors)

dense_1/kernel/read:0 f4 [100, 2]
0	0x3dd41d28	0.103571236
1	0x3de13f91	0.109984525
2	0x3d83a0ba	0.064271405
3	0x3d2dae65	0.042402644
4	0x3e291eed	0.16515703
5	0xbe0af7bb	-0.13571064
6	0x3d7e073b	0.062018614
7	0xbdf01dcf	-0.117244355
8	0xbe60c0c8	-0.2194854
9	0x3d26b070	0.040695608
10	0x3e37f69d	0.17965169
11	0xbd260d96	-0.0405403
12	0x3d73b661	0.059500102
13	0xbde17f66	-0.110106274
14	0xbe09d1c2	-0.13458923
15	0x3d657b44	0.05602576
16	0xbe4f3b59	-0.20237483
17	0xbe300e3f	-0.17192934
18	0x3de27d74	0.110590845
19	0x3e3391cd	0.17536087
20	0xbda92902	-0.08259775
21	0xbe04f500	-0.12984085
22	0x3b10c515	0.0022090126
23	0x3e396182	0.18103603
24	0xbe9ec271	-0.31007722
25	0x3ceff041	0.029289367
26	0xbd5d97d0	-0.054099858
27	0xbdc643d9	-0.0968091
28	0xbcdb0b7e	-0.026738878
29	0xbd1da290	-0.03848511
30	0x3d033499	0.032032583
31	0x3e565610	0.20931268
32	0xbdbfeed3	-0.09371724
33	0xbd3a41af	-0.045472797
34	0xbd760aa4	-0.06006874
35	0xbde48691	-0.11158479
36	0xbe0eec86	-0.13957414
37	0xbca3bb77	-0.019986851
38	0xbe9e8129	-0.30957916
39	0x3e059749	0.13045992
40	0x3d0762d7	0.033053245
41	0x3e3ac797	0.182402
42	0x3d9814ea	0.07425864
43	0xbd43dce9	-0.0478181
44	0x3cec7430	0.028863996
45	0xbb88575d	-0.004160805
46	0xbe0c694f	-0.13712047
47	0x3c1ad494	0.009450097
48	0x3dcf65f4	0.10126868
49	0xbe6d98e8	-0.2320286
50	0xbd94d4e4	-0.07267168
51	0xbdb4161a	-0.08793278
52	0xbc906c04	-0.01762963
53	0xbd89ac23	-0.067222856
54	0x3d9861a2	0.07440497
55	0x3c07e515	0.0082943635
56	0xbd2f23ce	-0.042758755
57	0x3e853c3d	0.2602252
58	0x3e14afae	0.14520141
59	0x3cdec4e8	0.027193502
60	0xbdba8903	-0.09108164
61	0xbe30979c	-0.17245334
62	0x3c283743	0.010267082
63	0x3da526eb	0.08064064
64	0xbe40e59a	-0.18837586
65	0xbe095c44	-0.13414103
66	0xbe72a013	-0.23693876
67	0x3e342935	0.17593844
68	0x3d87a538	0.0662331
69	0x3ddddcef	0.10833155
70	0x3dc11e2e	0.094295844
71	0x3e80c911	0.25153401
72	0xbe6af7d5	-0.22946103
73	0xbd7f7673	-0.06236882
74	0x3dd0fbf8	0.10204309
75	0xbc5eb4d1	-0.013592915
76	0xbc69d035	-0.014270832
77	0x3deda269	0.11603243
78	0xbddba554	-0.10724893
79	0xbd3340f1	-0.043763105
80	0x3dfe1b1f	0.12407517
81	0x3e19393d	0.14963241
82	0xbd890689	-0.066906996
83	0xbd0a77ac	-0.033805534
84	0xbdaae258	-0.08343953
85	0x3d8e628c	0.0695239
86	0xbe054641	-0.13015081
87	0x3d402e58	0.046919197
88	0x3dd683b5	0.1047434
89	0x3d908ad8	0.07057732
90	0xbdc0faa5	-0.09422807
91	0x3e1f3daa	0.15550867
92	0xbe16dbbc	-0.1473226
93	0x3afbade2	0.0019201601
94	0xbca8dbc6	-0.020612609
95	0xba06a73e	-0.00051366154
96	0x3e658a55	0.2241605
97	0xbe042167	-0.12903367
98	0xbdc5a477	-0.0965051
99	0x3d366fd8	0.044540256
100	0x3c9b4ccb	0.018957516
101	0xbe90c8bc	-0.28278148
102	0xbe9191f1	-0.28431657
103	0xbe260205	-0.16211708
104	0xbcaa3e52	-0.02078167
105	0xbb0694f0	-0.002053555
106	0x3e5c1fc9	0.214965
107	0x3d3cec13	0.046123575
108	0x3e2995de	0.16561076
109	0xbd99d027	-0.07510405
110	0x3dd3cf44	0.10342267
111	0xbd30d60e	-0.04317289
112	0x3e2515a0	0.1612153
113	0xbe3904b0	-0.18068194
114	0x3df8654f	0.12128698
115	0xbe8be07d	-0.27319708
116	0xbd9f6834	-0.07783547
117	0x3dc6df7b	0.09710594
118	0x3c9e1d58	0.019301102
119	0x3dd677cf	0.104720704
120	0x3ddba4d4	0.10724798
121	0x3cf8f228	0.030388907
122	0xbc38c572	-0.011277543
123	0xbda6b126	-0.08139257
124	0xbd0791d2	-0.03309805
125	0xbcf047f8	-0.029331192
126	0xbd93a6f7	-0.072095804
127	0xba95fda6	-0.0011443391
128	0x3e213c65	0.15745695
129	0x3daea7c1	0.0852809
130	0x3da0d7bd	0.07853649
131	0x3b15c81c	0.002285487
132	0x3e2a45dd	0.16628213
133	0x3e7451f6	0.2385939
134	0xbc4d2d23	-0.012522968
135	0x3d23f759	0.04003081
136	0x3e4cf883	0.20016675
137	0xbdcfbbad	-0.10143218
138	0xbd141c1a	-0.036159612
139	0x3da07c69	0.07836229
140	0xbcf795de	-0.03022283
141	0x3d99c134	0.07507554
142	0x3da26473	0.079293154
143	0xbd2ddf63	-0.042449366
144	0x3c32b95b	0.01090845
145	0xbcc0051f	-0.023439942
146	0xbdd9c150	-0.106325746
147	0xbdf73b9c	-0.120719165
148	0x3da58b90	0.0808326
149	0xbd0a9a2c	-0.033838436
150	0x3c239d22	0.009986194
151	0xbe55514d	-0.20831795
152	0xbe1c203e	-0.15246674
153	0xbe05bddf	-0.13060711
154	0xbe881a8f	-0.26582763
155	0xbd8d1f33	-0.068907164
156	0x3ae7ee1c	0.0017694863
157	0x3e5c3caf	0.21507524
158	0xbba48bdd	-0.005021556
159	0x3e53db2c	0.20689076
160	0xbe329481	-0.17439462
161	0xbe72924d	-0.23688622
162	0xbe3e600e	-0.1859133
163	0x3e69f72c	0.22848195
164	0xbdf4550e	-0.119302854
165	0xbdd258ef	-0.10270869
166	0xbcb14722	-0.021640364
167	0x3e00b001	0.1256714
168	0xbe0df4d6	-0.13862929
169	0xbe637d72	-0.22215822
170	0xbe17153e	-0.14754197
171	0xbd13d0bd	-0.03608774
172	0xbe54f094	-0.20794898
173	0x3c992a60	0.018696964
174	0xbd7525b2	-0.059850402
175	0xbe110543	-0.14162163
176	0xbd79baf6	-0.060969315
177	0x3e0b17cc	0.13583297
178	0xbd76a798	-0.060218424
179	0xbda74151	-0.08166755
180	0xbe0ef275	-0.13959678
181	0x3cd0ba84	0.025479563
182	0xbea31816	-0.31854314
183	0x3d6c31c9	0.057664666
184	0xbe8023a7	-0.250272
185	0x3db1287e	0.086503014
186	0xbdcbccf2	-0.099511996
187	0x3ddbfc38	0.10741466
188	0x3dbbee55	0.091763176
189	0x3e44a9bd	0.19205375
190	0x3df1697a	0.11787696
191	0x3dbabd81	0.09118176
192	0xbcbad987	-0.022808803
193	0x3d401376	0.04689356
194	0x3e25e521	0.16200687
195	0xbe752bd0	-0.23942494
196	0xbdd1a9f4	-0.10237494
197	0xbe39ec8b	-0.1815664
198	0x3d4d0230	0.050050914
199	0xbe661d09	-0.22472014

dense_1/bias/read:0 f4 [2]
0	0x3b0ff4e8	0.0021966044
1	0xbb0ff4e6	-0.002196604

dense/kernel/read:0 f4 [200, 100]
0	0x3db0d16a	0.086336926
1	0x3da4007a	0.080079034
2	0x3d4332ba	0.0476558
3	0x3d38397c	0.044976696
4	0x3e091908	0.13388455
5	0xbdc8863e	-0.0979123
6	0x3d2ee2e6	0.042696856
7	0xbda093d0	-0.07840693
8	0xbe1df272	-0.15424517
9	0x3cadcbd3	0.021215355
10	0x3e10bb8e	0.14134046
11	0xbd21461a	-0.039373495
12	0x3d422369	0.04739705
13	0xbda9173e	-0.08256386
14	0xbdc64969	-0.096819706
15	0x3d48bfbc	0.049010977
16	0xbe11be84	-0.14232832
17	0xbe0aa655	-0.13540013
18	0x3dc56db6	0.09640066
19	0x3de9e4c0	0.11420584
20	0xbd73b4e2	-0.059498675
21	0xbdada3ea	-0.0847853
22	0xbc3958f5	-0.011312713
23	0x3df180f6	0.117921755
24	0xbe56f530	-0.20991969
25	0x3ce686b9	0.028140413
26	0xbd0b2990	-0.033975184
27	0xbd94fd48	-0.07274872
28	0xbc703d2c	-0.014663022
29	0xbd13f871	-0.036125604
30	0x3d00d0ec	0.031449243
31	0x3e0c3a31	0.13694073
32	0xbdb4b9ac	-0.088244766
33	0xbd026b1d	-0.031840432
34	0xbcffb116	-0.03121237
35	0xbd9708f2	-0.07374753
36	0xbd892170	-0.06695831
37	0xbcc12f62	-0.023582164
38	0xbe621632	-0.2207878
39	0x3dbcf15f	0.092257254
40	0x3d34015d	0.043946613
41	0x3e00e025	0.12585504
42	0x3d69ba4d	0.057062436
43	0xbcff7175	-0.03118203
44	0x3c958450	0.018251568
45	0x3c08c817	0.008348486
46	0xbdc3f6f1	-0.09568585
47	0x39ee2ac6	0.00045426766
48	0x3d6f7233	0.05845852
49	0xbe303616	-0.17208132
50	0xbd324792	-0.043525286
51	0xbd8a3a81	-0.0674944
52	0xbcd92e08	-0.026511207
53	0xbd015e52	-0.03158409
54	0x3d3d1a19	0.046167467
55	0x3ca8074b	0.02051129
56	0xbd249cac	-0.040188476
57	0x3e45628f	0.19275878
58	0x3dbebd91	0.09313501
59	0x3d088143	0.0333264
60	0xbd54b585	-0.051930923
61	0xbdfc7830	-0.123276114
62	0x39a5c759	0.00031619778
63	0x3d59abd5	0.053142387
64	0xbdff6853	-0.1247107
65	0xbdbbb48c	-0.09165296
66	0xbe39d6f8	-0.1814841
67	0x3e00f198	0.1259216
68	0x3d45a560	0.048253417
69	0x3d9a56f7	0.075361185
70	0x3d9a6eaf	0.075406425
71	0x3e355665	0.17708738
72	0xbe094026	-0.13403377
73	0xbd82757f	-0.06370067
74	0x3d9a2d8b	0.07528218
75	0xbc21a7ed	-0.009866697
76	0xbc72f03f	-0.014827787
77	0x3da28351	0.07935203
78	0xbdb17a7e	-0.08665942
79	0xbd20c03b	-0.039245825
80	0x3dc6b2d5	0.09702078
81	0x3dba11de	0.09085439
82	0xbcea93f7	-0.028635008
83	0xbd0b799d	-0.034051526
84	0xbd858c9b	-0.06520959
85	0x3d5cb086	0.053879283
86	0xbdb2d4f3	-0.08732023
87	0x3d0d2373	0.034457635
88	0x3dc74430	0.097298026
89	0x3d42561d	0.047445405
90	0xbda2f6cd	-0.0795723
91	0x3df3c225	0.119022645
92	0xbddb2e9c	-0.107022494
93	0xbbd34048	-0.006446872
94	0xbcb33dee	-0.021880116
95	0x3c4362e1	0.01192543
96	0x3e25bbab	0.16184871
97	0xbdc8e101	-0.09808541
98	0xbd892fb2	-0.0669855
99	0x3d007295	0.031359274
100	0x3c55820b	0.013031493
101	0xbe5729c7	-0.2101203
102	0xbe4178cb	-0.18893735
103	0xbdf6a0f0	-0.12042415
104	0x3c5c0faa	0.013431469
105	0x3b7202c9	0.003692793
106	0x3e2b3067	0.16717683
107	0x3d253a48	0.040338784
108	0x3e01971f	0.12655304
109	0xbd8990f8	-0.06717104
110	0x3db42fb7	0.087981634
111	0xbd1e9543	-0.038716566
112	0x3de9e87b	0.11421295
113	0xbdffe830	-0.12495458
114	0x3dc80527	0.09766608
115	0xbe46867b	-0.19387238
116	0xbd8465ee	-0.06464754
117	0x3d9ea8f3	0.07747068
118	0x3ce275d5	0.027644077
119	0x3dadb43b	0.08481642
120	0x3d8ef7db	0.069808684
121	0x3ba403a8	0.0050053187
122	0xbc321283	-0.010868671
123	0xbd8620e7	-0.065492444
124	0xbc9fc1c2	-0.01950157
125	0xbbe35536	-0.006937648
126	0xbd1f9f7b	-0.03897045
127	0x3bec9f2b	0.0072211227
128	0x3dd248c7	0.102677874
129	0x3d65ddbb	0.05611966
130	0x3d513212	0.05107314
131	0x3d1386af	0.036017116
132	0x3dff297f	0.124590866
133	0x3e2c22ff	0.16810225
134	0x3c1502ab	0.009094874
135	0x3cc3b6e6	0.023890924
136	0x3e204fe7	0.1565548
137	0xbd832150	-0.06402838
138	0xbd15f622	-0.036611684
139	0x3d899a7f	0.06718921
140	0xbc46f464	-0.012143228
141	0x3ceb7c9a	0.028745938
142	0x3d4fdcb9	0.050747607
143	0xbd2ad323	-0.041705262
144	0x3d0fb10a	0.035080947
145	0xbc0e762a	-0.008695165
146	0xbd9ed572	-0.07755555
147	0xbd790a2e	-0.060800724
148	0x3d7f49ba	0.06232617
149	0xbca6de3b	-0.02036964
150	0x3cda5515	0.026651898
151	0xbe242311	-0.16029002
152	0xbdf7fcad	-0.12108741
153	0xbdaff151	-0.08590949
154	0xbe4209f9	-0.18949117
155	0xbd254d42	-0.040356882
156	0x3c734d1f	0.01484993
157	0x3e017f06	0.12646112
158	0xbc5fd3c8	-0.013661332
159	0x3e1ae85d	0.15127702
160	0xbdfd34c2	-0.123635784
161	0xbe1037d3	-0.14083795
162	0xbe04a08d	-0.1295187
163	0x3e32e6c7	0.17470847
164	0xbdc27f51	-0.0949694
165	0xbd555ec3	-0.052092325
166	0xbcdcd7aa	-0.026958305
167	0x3dc589e3	0.096454404
168	0xbdc16bc0	-0.0944438
169	0xbe23f0bd	-0.16009803
170	0xbde5d1ef	-0.11221682
171	0xbc0af252	-0.008480625
172	0xbe17b2f7	-0.14814363
173	0x3c6f549c	0.014607575
174	0xbd81eb5b	-0.063437186
175	0xbdbd4c31	-0.09243048
176	0xbd596d16	-0.053082548
177	0x3de63e6f	0.11242377
178	0xbd10298c	-0.035195872
179	0xbd746e4e	-0.059675507
180	0xbdbfcf35	-0.093656935
181	0x3c0a35de	0.0084356945
182	0xbe51bbd9	-0.20481814
183	0x3d6c1038	0.057632655
184	0xbe2c6009	-0.1683351
185	0x3d62c233	0.055360984
186	0xbd66d4a2	-0.056355126
187	0x3dd161aa	0.10223706
188	0x3d964330	0.07337034
189	0x3e0a8514	0.13527328
190	0x3d89063a	0.06690641
191	0x3d492a16	0.049112402
192	0xbc77d5f0	-0.01512669
193	0x3d1a3b22	0.03765405
194	0x3dfa86f1	0.12232769
195	0xbe2aff07	-0.16698848
196	0xbd985742	-0.07438518
197	0xbe1a3a5a	-0.15061322
198	0x3cc9c288	0.024628893
199	0xbe208b4e	-0.1567814
200	0x3e0d7533	0.13814239
201	0xbdffea62	-0.12495877
202	0xbdda4343	-0.106573604
203	0xbd34dc63	-0.04415549
204	0xbce10565	-0.027468393
205	0xbe109720	-0.1412015
206	0x3d97a603	0.07404711
207	0x3cab30b1	0.020897241
208	0xbe1bf64f	-0.15230678
209	0x3d63db28	0.055628926
210	0x39c82733	0.00038176178
211	0x3e340ee1	0.17583801
212	0x3d51aed7	0.05119213
213	0xbe32b077	-0.17450128
214	0xbe28e11c	-0.16492122
215	0xbe223327	-0.15839826
216	0xbccc35cd	-0.024927998
217	0xbc19348c	-0.009350907
218	0x3c83cbb4	0.016088344
219	0x3c7f4e30	0.015582606
220	0x3d72275e	0.059119575
221	0x3e246c7c	0.16057009
222	0xbe0a90d5	-0.13531812
223	0xbd460c51	-0.04835159
224	0xbdc273d7	-0.09494751
225	0x3ddebd35	0.10875932
226	0xbd1a7b73	-0.037715387
227	0xbc2bf466	-0.010495281
228	0xbd88c66b	-0.0667847
229	0xbe06f91b	-0.13180964
230	0x3ba7abe0	0.0051169246
231	0xbd31c40b	-0.04339985
232	0xbe09a335	-0.13441165
233	0xbd829f02	-0.063779846
234	0xbd38b9f3	-0.04509921
235	0x3cbc06ca	0.022952456
236	0xbe599e49	-0.21251787
237	0x3e12f367	0.14350663
238	0xbdd6c653	-0.10487046
239	0xbcfcf486	-0.030878317
240	0x3be2277d	0.00690168
241	0xbc89cb68	-0.016820624
242	0x3d0e4014	0.03472908
243	0xbd62bff3	-0.05535884
244	0x3cfa440a	0.030550022
245	0x3e3d5372	0.18488863
246	0xbd9a79df	-0.07542776
247	0x3d75c603	0.06000329
248	0x3c0772f0	0.008267149
249	0x3db27c42	0.087151065
250	0x3c9fb6a2	0.019496266
251	0xbd1afff1	-0.03784174
252	0xbcb91fda	-0.022598196
253	0x3db2f244	0.08737615
254	0x3e1698c3	0.14706711
255	0xbd387803	-0.045036327

dense/bias/read:0 f4 [100]
0	0xbc6e03ba	-0.014527256
1	0x3919442c	0.00014616613
2	0xbbcf6aa8	-0.006329853
3	0x3bfb2120	0.007663861
4	0xbb9d4d01	-0.0048004393
5	0xbb16e680	-0.0023025572
6	0xba21a29b	-0.00061658927
7	0x3a7dbb0e	0.00096790574
8	0xbbe1f467	-0.00689559
9	0x388d5914	6.739996e-05
10	0xbb25d647	-0.0025304721
11	0xbb7f9413	-0.0038998171
12	0xbc068592	-0.008210557
13	0xbbcb75d1	-0.006209113
14	0xbb78d508	-0.0037968773
15	0x3b032d33	0.0020015955
16	0xbbd69a6c	-0.0065491702
17	0xbbb32e05	-0.0054681324
18	0x3b2105e1	0.0024570154
19	0xbb3714a2	-0.0027935882
20	0xb9e0d78f	-0.00042885213
21	0x3b4bb0da	0.0031080754
22	0x3ba8aa63	0.005147265
23	0xba6db544	-0.0009067843
24	0x3ad533be	0.0016266031
25	0xbab461ad	-0.001376202
26	0x3b848951	0.0040446897
27	0xbbd783bb	-0.006576983
28	0xbc02aeea	-0.007976273
29	0x3c383f71	0.011245594
30	0x3b2f29db	0.0026727829
31	0xbc780b4d	-0.015139413
32	0xb9758dcd	-0.00023417846
33	0xbb84a3cf	-0.004047848
34	0x3a953604	0.0011383896
35	0xbb04ee6b	-0.002028371
36	0x3be734f8	0.007055875
37	0x393b552f	0.00017865443
38	0xbb23ab6b	-0.0024974
39	0xbbe2204f	-0.006900824
40	0xbbbc872c	-0.0057534184
41	0x3b9189aa	0.0044414597
42	0xbbf9998f	-0.0076171826
43	0xbb95f8d5	-0.004576782
44	0xba9461f0	-0.0011320692
45	0xbc8273a3	-0.01592428
46	0xbb097cb4	-0.002097887
47	0xbcb6ef58	-0.022330925
48	0xbc027748	-0.007963009
49	0x39b4e6bd	0.0003450419
50	0xbb653ba6	-0.003497818
51	0xbb80011c	-0.0039063822
52	0xbc3e7d2c	-0.011626523
53	0x3a37e164	0.0007014482
54	0x3a85ad5c	0.001019876
55	0x3bd50f74	0.0065020863
56	0x3b224a57	0.0024763548
57	0x3bb4f21a	0.005522025
58	0x3ada38bd	0.0016648989
59	0xbc5e5205	-0.01356936
60	0x3a6a65d0	0.0008941563
61	0xbb97d41b	-0.0046334392
62	0xbc7c8406	-0.015412336
63	0xbc027630	-0.007962748
64	0x3b4f4d76	0.0031631864
65	0xbba689da	-0.005082351
66	0xba8d4c99	-0.0010780274
67	0xbc29c5fa	-0.010362143
68	0xbbcc48c2	-0.0062342593
69	0x3a0522a2	0.0005078708
70	0xba41d589	-0.0007394185
71	0xbbafce44	-0.005365165
72	0xbba59013	-0.0050525754
73	0xbc13c977	-0.009020201
74	0x3c111342	0.008854689
75	0x3b7d6962	0.003866755
76	0xbb72a834	-0.0037026526
77	0xbbf1176e	-0.0073575294
78	0xbafa1560	-0.0019079857
79	0xbc397b55	-0.011320909
80	0x3b5263f6	0.0032103038
81	0xbc1e5af9	-0.009665244
82	0xbc4e379c	-0.0125865005
83	0xbc3daaf8	-0.011576407
84	0x3b10ea1b	0.0022112194
85	0xbb89cda1	-0.004205421
86	0xba8682e2	-0.0010262395
87	0xba9fa339	-0.0012179381
88	0xbc23382b	-0.009962122
89	0x3ab89730	0.0014083143
90	0x396dedc7	0.0002269066
91	0x3c1eb92c	0.009687703
92	0x38a9ddca	8.0998594e-05
93	0x3a86bfcd	0.001028055
94	0xbbdfc3bb	-0.006828753
95	0x3ab26975	0.0013611751
96	0xbb849a3b	-0.004046706
97	0x3b8eb4ca	0.004355048
98	0xbbdd93d7	-0.0067620086
99	0x3bf5804a	0.0074921
