test/models/mood_aggressive-msd-musicnn-1.onnx (onnx, 82060 bytes, 4 tensors)

dense_1/kernel/read:0 f4 [100, 2]
0	0x3de8e481	0.11371709
1	0x3dcc7861	0.09983898
2	0x3d83acd2	0.06429447
3	0x3d2d9695	0.042379934
4	0x3e32c231	0.1745689
5	0xbe149af7	-0.1451224
6	0x3d62c47f	0.055363175
7	0xbde27c51	-0.11058868
8	0xbe5ec4ee	-0.2175481
9	0x3d1ec186	0.038758777
10	0x3e493ef7	0.19652925
11	0xbd6b2e6d	-0.057417322
12	0x3d82a803	0.06379702
13	0xbdea4c3e	-0.11440323
14	0xbe0d2d59	-0.1378683
15	0x3d72e995	0.059304792
16	0xbe3bc536	-0.18336949
17	0xbe43853a	-0.1909379
18	0x3e024368	0.12721026
19	0x3e228ce6	0.15874061
20	0xbdbd9a5a	-0.09257956
21	0xbdf578d0	-0.11985934
22	0xbbe58af9	-0.007005092
23	0x3e42d0fd	0.19025035
24	0xbe9db0c0	-0.30798912
25	0x3cded4af	0.027201025
26	0xbd2638c5	-0.040581483
27	0xbde1f3f4	-0.110328585
28	0xbcd317fa	-0.025768269
29	0xbd219c06	-0.039455436
30	0x3cdf7808	0.027278915
31	0x3e5b343a	0.21406642
32	0xbdb853cc	-0.09000358
33	0xbd4977f5	-0.049186666
34	0xbd6d8a27	-0.05799308
35	0xbde8c6b1	-0.113660224
36	0xbdd951af	-0.10611283
37	0xbd5aef3a	-0.0534508
38	0xbe9d5767	-0.30730745
39	0x3e0343b5	0.12818797
40	0x3d622c53	0.055218052
41	0x3e241624	0.16024071
42	0x3da14942	0.07875301
43	0xbd564541	-0.05231214
44	0x3cd13a8d	0.025540615
45	0xba5b7fd5	-0.00083732355
46	0xbdfd0ab8	-0.1235556
47	0xbb86cdf8	-0.004113909
48	0x3db2b3c1	0.087256916
49	0xbe5f3f83	-0.21801572
50	0xbd8433bf	-0.06455182
51	0xbdc4b752	-0.09605278
52	0xbcd37a26	-0.02581508
53	0xbd71d1c2	-0.05903793
54	0x3d7f4813	0.062324595
55	0x3ca6e876	0.020374518
56	0xbd6d18f7	-0.057885136
57	0x3e8cfaf4	0.27535212
58	0x3e05999f	0.13046883
59	0x3d2bbb49	0.041926656
60	0xbdb7c4d3	-0.08973088
61	0xbe31f9e0	-0.17380476
62	0x3c8b5087	0.017006172
63	0x3d9759fd	0.07390211
64	0xbe4c5e65	-0.19957884
65	0xbdfbc718	-0.122938335
66	0xbe747493	-0.23872595
67	0x3e35fdb5	0.17772563
68	0x3da2ae94	0.079434544
69	0x3dc2d487	0.095131926
70	0x3dc8b7f5	0.09800712
71	0x3e7dc4ee	0.24782154
72	0xbe50fc5e	-0.2040877
73	0xbdb3b160	-0.08774066
74	0x3dc7e7aa	0.09760983
75	0xbc1612a9	-0.009159722
76	0xbc70660e	-0.014672769
77	0x3dee7513	0.11643424
78	0xbdd967dc	-0.10615513
79	0xbd37bca0	-0.04485762
80	0x3e11f413	0.14253263
81	0x3e065309	0.13117613
82	0xbd4a9dd6	-0.04946693
83	0xbd51e71f	-0.051245805
84	0xbdb5f875	-0.0888528
85	0x3d9978a7	0.07493716
86	0xbdf4060c	-0.11915216
87	0x3d1320da	0.03592
88	0x3de79576	0.11307804
89	0x3d7ef220	0.062242627
90	0xbdc9692a	-0.098345116
91	0x3e2374a7	0.15962468
92	0xbe160997	-0.14652096
93	0x3a92a015	0.0011186624
94	0xbd132acd	-0.03592949
95	0x3c728956	0.014803251
96	0x3e5f2649	0.21791948
97	0xbdfb7b44	-0.122793704
98	0xbdaf69c4	-0.08565095
99	0x3d09fa83	0.033686172
100	0x3ce10d55	0.027472178
101	0xbe9524cb	-0.29129633
102	0xbe94c69f	-0.29057786
103	0xbe1f9847	-0.15585433
104	0xbc2e1333	-0.010624695
105	0xbc480ee0	-0.012210578
106	0x3e5967b9	0.21230973
107	0x3d47cc0a	0.04877857
108	0x3e35ffe9	0.17773403
109	0xbdb2a433	-0.08722725
110	0x3dd118d9	0.102098174
111	0xbd2b6936	-0.041848384
112	0x3e198995	0.1499389
113	0xbe2d78a9	-0.1694056
114	0x3ddb1c3e	0.10698746
115	0xbe848e3d	-0.2588977
116	0xbd95bd96	-0.07311551
117	0x3dbd34db	0.09238597
118	0x3c37b807	0.011213309
119	0x3de70984	0.11281112
120	0x3dedb55f	0.116068594
121	0x3cb0b01e	0.021568354
122	0x3c96f3ba	0.018426765
123	0xbde386f9	-0.11109728
124	0xbd6d3648	-0.057913095
125	0xbb93fe9e	-0.0045164367
126	0xbda603ad	-0.0810617
127	0x3c00255c	0.007821407
128	0x3e2dc6a2	0.16970304
129	0x3d959329	0.07303459
130	0x3daad889	0.08342082
131	0xbb2a508f	-0.0025987958
132	0x3e30a7ea	0.17251554
133	0x3e6df045	0.23236187
134	0xbcea4ef8	-0.028602108
135	0x3d65d385	0.056109924
136	0x3e500d66	0.20317611
137	0xbdd5e582	-0.10444166
138	0xbd4531fa	-0.048143364
139	0x3db9075a	0.09034605
140	0xbd4e4f2a	-0.050368465
141	0x3dc3034e	0.09522115
142	0x3db85787	0.090010695
143	0xbd59c58c	-0.05316691
144	0x3d154bd2	0.03644926
145	0xbd48a01f	-0.04898083
146	0xbdcae794	-0.09907451
147	0xbe030b00	-0.12797165
148	0x3da9b526	0.082865044
149	0xbd12ec44	-0.03586985
150	0x3c9f924f	0.019478945
151	0xbe5f09d7	-0.21781097
152	0xbe19f357	-0.15034233
153	0xbe07eabb	-0.13273136
154	0xbe93c843	-0.28863725
155	0xbd3cc605	-0.046087284
156	0x3cc55b8f	0.02409151
157	0x3e4561c6	0.19275579
158	0xbb960a07	-0.004578832
159	0x3e536683	0.20644574
160	0xbe416068	-0.18884432
161	0xbe63c640	-0.22243595
162	0xbe4e189e	-0.20126578
163	0x3e79afa8	0.24383414
164	0xbe076b32	-0.13224486
165	0xbdb7d8a8	-0.08976871
166	0xbc43cc08	-0.0119505
167	0x3ded87ba	0.115981534
168	0xbe0d98d3	-0.13827829
169	0xbe63d963	-0.22250895
170	0xbe18e031	-0.14929272
171	0xbd0ca5a5	-0.03433766
172	0xbe5687ff	-0.20950316
173	0x3ca5e5f2	0.020251248
174	0xbd6131dc	-0.05497919
175	0xbe160269	-0.14649357
176	0xbd69746d	-0.056995798
177	0x3e070644	0.13185984
178	0xbd9d31bc	-0.07675502
179	0xbd856364	-0.06513098
180	0xbe03d911	-0.12875773
181	0x3c6fdc65	0.0146399485
182	0xbe9ee956	-0.31037396
183	0x3d4aba2a	0.049493946
184	0xbe76db95	-0.24107201
185	0x3d9e4f8a	0.077300146
186	0xbdc7a2de	-0.09747861
187	0x3dd7d22b	0.10538133
188	0x3dc1c3b7	0.09461158
189	0x3e41bf1c	0.18920559
190	0x3dfbed7b	0.12301155
191	0x3db039c6	0.086047694
192	0xbcb797b9	-0.022411214
193	0x3d3e729a	0.04649601
194	0x3e2a1325	0.16608866
195	0xbe7959e0	-0.24350691
196	0xbdbd437a	-0.09241386
197	0xbe442017	-0.19152866
198	0x3d585fe7	0.052825835
199	0xbe68f477	-0.22749506

dense_1/bias/read:0 f4 [2]
0	0x3b63f6be	0.003478452
1	0xbb63f6bf	-0.0034784523

dense/kernel/read:0 f4 [200, 100]
0	0x3da44878	0.08021635
1	0x3d9b5ee2	0.07586457
2	0x3d254588	0.040349513
3	0x3d082fd3	0.033248734
4	0x3e05508f	0.13019012
5	0xbdddf149	-0.10837037
6	0x3cee8881	0.029117825
7	0xbd8a66d0	-0.06757891
8	0xbe17f868	-0.14840853
9	0x3d25af24	0.04045023
10	0x3e073c13	0.1320651
11	0xbcff6395	-0.031175414
12	0x3d4e3777	0.050345864
13	0xbdaa99a4	-0.08330086
14	0xbdc90d19	-0.09816951
15	0x3d1fc06b	0.039001863
16	0xbe03aa82	-0.12858012
17	0xbe06bc48	-0.13157761
18	0x3db21dc2	0.08697082
19	0x3df3f853	0.119125985
20	0xbd4680cb	-0.04846267
21	0xbdcf997f	-0.10136699
22	0x3bc185d7	0.0059058475
23	0x3e108013	0.14111356
24	0xbe557b11	-0.20847727
25	0x3c8acdc1	0.016943814
26	0xbd26461d	-0.04059421
27	0xbda9d1af	-0.08291947
28	0xbc90e900	-0.017689228
29	0xbcfe9c3a	-0.031080354
30	0x3cda30a9	0.026634531
31	0x3e1ad6c9	0.15120997
32	0xbda07128	-0.07834083
33	0xbcdcf0d6	-0.026970308
34	0xbd28a43c	-0.04117225
35	0xbd9c0da1	-0.07619787
36	0xbdab0460	-0.08350444
37	0xbd24f9c4	-0.040277258
38	0xbe681a83	-0.22666363
39	0x3dd074ef	0.10178553
40	0x3d275c51	0.040859524
41	0x3e008796	0.12551722
42	0x3d6a7fa4	0.057250634
43	0xbceccf00	-0.028907299
44	0x3c04c774	0.008104194
45	0x3c6f4e2d	0.014606041
46	0xbdb58275	-0.08862773
47	0x3bbfd34c	0.005854046
48	0x3d79341f	0.060840722
49	0xbe1ea1a6	-0.15491351
50	0xbd5af479	-0.053455804
51	0xbd869150	-0.06570685
52	0xbc8a06cb	-0.016848942
53	0xbd0fb999	-0.03508911
54	0x3d1ff59b	0.039052587
55	0x3bc422d2	0.005985596
56	0xbd4e3995	-0.050347883
57	0x3e431813	0.19052152
58	0x3dc7e3e5	0.09760264
59	0x3d20214d	0.039094258
60	0xbd858cc2	-0.06520988
61	0xbe06d76e	-0.13168117
62	0xbbfc53de	-0.0077004274
63	0x3d8895ea	0.06669219
64	0xbe106a27	-0.14102994
65	0xbdcad693	-0.09904208
66	0xbe2d1af0	-0.16904807
67	0x3e0052a8	0.12531531
68	0x3d138a8f	0.03602081
69	0x3da01a07	0.07817464
70	0x3d75dca6	0.06002488
71	0x3e275fb5	0.16345103
72	0xbe1971e2	-0.14984849
73	0xbd67146d	-0.056415964
74	0x3d8d0862	0.068863645
75	0xbc468858	-0.012117468
76	0xbbb393eb	-0.0054802797
77	0x3da64b46	0.08119826
78	0xbd93c78f	-0.07215797
79	0xbcbc33d1	-0.022973927
80	0x3dd03361	0.1016605
81	0x3dc6881a	0.09693928
82	0xbd3a151e	-0.045430295
83	0xbcc31c75	-0.02381728
84	0xbd9662c1	-0.073430546
85	0x3d8523ab	0.06500944
86	0xbda57e6e	-0.08080755
87	0x3cd0ead1	0.025502594
88	0x3d99079b	0.07472154
89	0x3d418585	0.047246475
90	0xbd9037d5	-0.07041899
91	0x3df03d34	0.117304236
92	0xbde65a8d	-0.1124774
93	0x3c36ec81	0.011164785
94	0xbc4ecdbf	-0.012622296
95	0xbb43daaf	-0.0029884984
96	0x3e2ca4bb	0.16859715
97	0xbdb86e3d	-0.09005401
98	0xbd74bd00	-0.059750557
99	0x3cb53196	0.022118371
100	0x3c337dc6	0.01095528
101	0xbe4fae26	-0.20281276
102	0xbe43fe3f	-0.19139956
103	0xbde4b533	-0.111673735
104	0xbc5b31e0	-0.01337859
105	0x3bd8f4ed	0.0066209943
106	0x3e25c75f	0.16189335
107	0x3ccb894e	0.024845745
108	0x3df516f8	0.119672716
109	0xbd869c4a	-0.065727785
110	0x3db38b11	0.08766759
111	0xbd1e04b8	-0.03857872
112	0x3dd92217	0.10602205
113	0xbdfbc9bb	-0.122943364
114	0x3dcc647d	0.09980104
115	0xbe4e3b95	-0.20139916
116	0xbd810e74	-0.06301585
117	0x3d9fb56e	0.07798277
118	0x3ae645db	0.0017568426
119	0x3d91efed	0.0712584
120	0x3d8c7011	0.068573125
121	0x3cd05106	0.02542926
122	0x3c126f08	0.008937605
123	0xbda2e57e	-0.079539284
124	0xbc5725db	-0.013131584
125	0xbc3301d3	-0.010925728
126	0xbd47b88a	-0.048759975
127	0x3c700348	0.01464922
128	0x3dcb0d3f	0.09914636
129	0x3d9718c8	0.073777735
130	0x3d7fde91	0.062468115
131	0x3b9b08fb	0.004731295
132	0x3dd729d7	0.10506027
133	0x3e273f8f	0.1633284
134	0xbc1267e7	-0.008935905
135	0x3ccc24e4	0.024919935
136	0x3e134ad7	0.14384018
137	0xbd89fdbb	-0.06737848
138	0xbd31de61	-0.043424968
139	0x3d5181c8	0.05114916
140	0xbca3a45a	-0.01997583
141	0x3d37aa3c	0.044840083
142	0x3d4a49dd	0.049386848
143	0xbd30cdff	-0.043165203
144	0x3cf1483e	0.029453393
145	0xbcd52b46	-0.026021611
146	0xbda6d829	-0.08146698
147	0xbdb65839	-0.08903546
148	0x3d6bb181	0.057542328
149	0xbcdf8e81	-0.02728963
150	0x3ca7e8ce	0.020496752
151	0xbe2451e6	-0.16046867
152	0xbde8fa90	-0.11375916
153	0xbdb0c86a	-0.08631976
154	0xbe4602f2	-0.19337061
155	0xbd367098	-0.04454097
156	0x3c77bd77	0.0151208555
157	0x3e0fa522	0.14027837
158	0xbc322b3b	-0.010874565
159	0x3e0faad9	0.14030017
160	0xbe020ffd	-0.12701412
161	0xbe198bb2	-0.14994696
162	0xbe26d60e	-0.16292593
163	0x3e365caf	0.17808793
164	0xbdb61634	-0.08890954
165	0xbd5e45eb	-0.054265898
166	0xbce4f8aa	-0.027950604
167	0x3db6a77a	0.08918662
168	0xbdc6fb2e	-0.097158775
169	0xbe26d360	-0.1629157
170	0xbdfd4d07	-0.123682074
171	0xbc293db0	-0.010329649
172	0xbe108e05	-0.14116676
173	0x3ca43090	0.020042688
174	0xbd39284b	-0.045204442
175	0xbdc0041f	-0.09375786
176	0xbd6a6908	-0.05722907
177	0x3dbaf35b	0.091284476
178	0xbd59548e	-0.053059153
179	0xbd83c58d	-0.06434164
180	0xbdba0919	-0.090837665
181	0x3c6b689c	0.014368203
182	0xbe632bff	-0.22184752
183	0x3cfc1600	0.03077221
184	0xbe2a5352	-0.16633347
185	0x3d46943b	0.048481207
186	0xbd9caba1	-0.07649923
187	0x3dbb41c0	0.091434
188	0x3d876de7	0.06612759
189	0x3e1c91d3	0.15290003
190	0x3d991d97	0.07476347
191	0x3d57f801	0.05272675
192	0xbcea4f50	-0.028602272
193	0x3cf0c053	0.029388582
194	0x3de1a37b	0.110175095
195	0xbe2ab15c	-0.1666922
196	0xbd96c421	-0.07361627
197	0xbe094e1c	-0.13408703
198	0x3d0e15cf	0.034688767
199	0xbe17286f	-0.14761518
200	0x3e177d55	0.14793904
201	0xbe0b8a33	-0.13626938
202	0xbdd21399	-0.10257644
203	0xbd0d6f60	-0.034530044
204	0xbbdbf0e4	-0.006712066
205	0xbe074bb0	-0.13212466
206	0x3da561f7	0.08075326
207	0x3c63ac01	0.013895989
208	0xbe115d8d	-0.14195843
209	0x3d34f52a	0.04417912
210	0x3ae10bb4	0.0017169625
211	0x3e288b7e	0.16459462
212	0x3d497b62	0.049189933
213	0xbe25a04b	-0.16174428
214	0xbe2858c0	-0.16440105
215	0xbe1bc955	-0.15213521
216	0xbcdac645	-0.02670587
217	0xbba4a3b6	-0.0050243987
218	0x3d2be77a	0.0419688
219	0x3c7a99da	0.01529547
220	0x3d823794	0.06358257
221	0x3e347596	0.1762298
222	0xbe16ec82	-0.14738658
223	0xbd39e449	-0.045383725
224	0xbdd807a1	-0.1054833
225	0x3dee6eee	0.11642252
226	0xbd0e26fa	-0.03470514
227	0xbcba3dcd	-0.022734547
228	0xbd705353	-0.058673214
229	0xbe19d3b9	-0.15022172
230	0xb9eed552	-0.00045553833
231	0xbd18be23	-0.037290704
232	0xbe05edeb	-0.1307904
233	0xbd8ff4b3	-0.070290945
234	0xbd0e2962	-0.034707434
235	0x3cc782b0	0.024354309
236	0xbe46cb2f	-0.19413446
237	0x3e154682	0.14577678
238	0xbdcdb768	-0.100447476
239	0xbd0b38b8	-0.033989638
240	0x3c4cd29e	0.012501387
241	0xbcb7f698	-0.022456452
242	0x3d13113a	0.0359051
243	0xbd585d7f	-0.05282354
244	0x3d2aeb54	0.041728333
245	0x3e456376	0.19276223
246	0xbda6aadb	-0.08138057
247	0x3db8370d	0.08994875
248	0xbba092eb	-0.0049003265
249	0x3db31a15	0.08745209
250	0x3cf7e188	0.030258909
251	0xbd38c02e	-0.04510515
252	0xbcb6f515	-0.022333661
253	0x3dbd0883	0.09230139
254	0x3e1e1e08	0.15441144
255	0xbd11a246	-0.035555147

dense/bias/read:0 f4 [100]
0	0xbbb17ee4	-0.005416738
1	0x3b718054	0.003685017
2	0xbaf7c231	-0.0018902478
3	0x3b60fe18	0.003433114
4	0xbb3a094a	-0.0028386884
5	0x3b7c921b	0.0038539234
6	0x3b9bf276	0.004759128
7	0xba2da339	-0.00066237483
8	0xbc0dbeab	-0.008651416
9	0xbb7012c3	-0.0036632277
10	0xbade83df	-0.0016976557
11	0xbb2e17e2	-0.0026564528
12	0xbb011ede	-0.0019702236
13	0x3bec06b4	0.0072029475
14	0xbbd351c0	-0.0064489543
15	0x3c000334	0.007813264
16	0xbbc84b78	-0.006112512
17	0x3a8c7194	0.0010715001
18	0x3b8ac456	0.004234831
19	0xbb22be02	-0.0024832492
20	0xbc24df18	-0.010062955
21	0x3ba10c76	0.0049148155
22	0xbb7b495a	-0.0038343281
23	0xbc145e08	-0.009055622
24	0xbc4662fe	-0.0121085625
25	0x3bc785c4	0.006088944
26	0x3b759b23	0.0037476502
27	0x392cc6d1	0.00016477263
28	0xba95efcd	-0.0011439264
29	0xb9c53c8a	-0.00037619873
30	0xbbc3326e	-0.0059569394
31	0xbbf4278c	-0.0074510034
32	0x3c98d212	0.018654857
33	0xba33adb9	-0.0006854195
34	0xbc1cfdf9	-0.009582036
35	0xbb7bbd55	-0.0038412411
36	0xba08491d	-0.0005198883
37	0xbba5bce0	-0.005057916
38	0x3bda1469	0.006655265
39	0xbba1db74	-0.004939491
40	0xbc42482b	-0.0118580265
41	0xbbf40159	-0.0074464497
42	0xbac974d8	-0.0015369905
43	0xbae0af04	-0.0017142002
44	0x3c00494d	0.007829976
45	0xbc31d0df	-0.010853021
46	0xbb0ad620	-0.0021184757
47	0x3c6bc6aa	0.014390627
48	0xbc3e86b1	-0.011628793
49	0xbbc24676	-0.0059288098
50	0x3b85dc25	0.004085081
51	0x3bf8e906	0.007596138
52	0xbb8b9807	-0.0042600664
53	0xbb3a5898	-0.0028434154
54	0x3bbc9b03	0.0057557835
55	0x3b6f5d77	0.0036524215
56	0xbba47483	-0.005018772
57	0xbb6495bc	-0.0034879288
58	0xbbb10f4c	-0.005403435
59	0xbb785500	-0.003789246
60	0x3b424172	0.002964106
61	0x3bc69a87	0.0060609016
62	0x3cbb3391	0.022851737
63	0xbc15e613	-0.009149092
64	0x3c0210e3	0.007938596
65	0x3982e186	0.0002496356
66	0xbba41383	-0.005007209
67	0x3bde9930	0.0067931637
68	0x3c3c7b76	0.011504045
69	0x3be68471	0.007034831
70	0x3c48ed90	0.012263671
71	0x3ba98a15	0.0051739314
72	0x3ba9c04d	0.0051803947
73	0xbaaef94c	-0.0013349443
74	0x3c2047fe	0.009782789
75	0x3a91dbfa	0.001112818
76	0xbab091f0	-0.0013471227
77	0x3bdbb802	0.006705285
78	0xbc1bbc8d	-0.009505403
79	0xbbf941df	-0.0076067294
80	0xbbab1a92	-0.0052216733
81	0x3c0bb6f7	0.008527509
82	0xbb263441	-0.0025360736
83	0xbb454d9c	-0.0030106073
84	0x3b83bdba	0.00402042
85	0xbc0a9c69	-0.008460143
86	0xbac8222d	-0.0015268974
87	0x3a90bbbd	0.0011042278
88	0xbbe15cd2	-0.00687752
89	0x3a1edfb6	0.0006060557
90	0xbb182644	-0.0023216167
91	0xba64b940	-0.0008725114
92	0xbbd99a66	-0.00664072
93	0xbb2ff05e	-0.002684615
94	0xbbd408a8	-0.0064707585
95	0x3bbde7ef	0.005795471
96	0xbb83192d	-0.004000804
97	0x3a2e6682	0.0006652848
98	0xbbfc6e45	-0.007703575
99	0x3b255ebb	0.0025233466
