test/models/msd-msd-musicnn-1.onnx (onnx, 43500 bytes, 4 tensors)

Const_3:0 f4 [50]
-1.2708746 -2.032892 -2.3710668 -2.262119 -2.2876892 -2.5087812 -3.2627456 -4.166946
-3.2739623 -3.0076818 -4.2381177 -3.9735527 -3.530125 -4.292879 -2.992097 -3.0092616
-3.3901358 -4.344959 -3.5807807 -3.2011273 -3.114989 -3.67313 -4.551526 -3.3135788
-3.557832 -3.8172157 -3.203894 -3.7747564 -4.0513487 -3.8913538 -3.3648038 -4.59986
-4.1892643 -3.8971415 -3.7981105 -5.172765 -4.0420465 -4.6443863 -4.855317 -5.213771
-3.6093814 -4.4073114 -4.453698 -3.2702446 -3.865868 -4.3422275 -4.0864625 -5.1132226
-4.5411906 -5.386199
00000000: 05ac a2bf e71a 02c0 8fbf 17c0 8fc6 10c0
00000010: 8069 12c0 df8f 20c0 d3d0 50c0 9f57 85c0
00000020: 9988 51c0 dc7d 40c0 a99e 87c0 b04e 7ec0
00000030: 91ed 61c0 445f 89c0 847e 3fc0 be97 40c0
00000040: fcf7 58c0 e709 8bc0 832b 65c0 45df 4cc0
00000050: fb5b 47c0 9014 6bc0 1aa6 91c0 ad11 54c0
00000060: 85b3 63c0 434d 74c0 990c 4dc0 9c95 71c0
00000070: a6a4 81c0 f10b 79c0 f258 57c0 0e32 93c0
00000080: 740e 86c0 c46a 79c0 3e14 73c0 4a87 a5c0
00000090: 7258 81c0 d09e 94c0 c25e 9bc0 36d7 a6c0
000000a0: 1b00 67c0 b208 8dc0 b284 8ec0 b04b 51c0
000000b0: 626a 77c0 87f3 8ac0 4dc4 82c0 859f a3c0
000000c0: 6f51 91c0 be5b acc0

Const_2:0 f4 [200, 50]
-0.08889124 -0.011430386 -0.08096428 -0.076527536 -0.053894117 -0.002223136 0.0328764 0.000978021
-0.08068353 0.015156235 -0.013359414 -0.08818242 -0.050029997 0.012120802 -0.0816172 0.02089743
-0.061351262 -0.01526465 -0.047252703 -0.022425413 -0.05935153 0.021175588 -0.026209634 -0.01600194
-0.07756278 0.010910555 0.007974941 -0.12567642 -0.0886089 -0.046495646 -0.10295036 0.00117968
-0.073302574 0.017831644 -0.0013338845 0.016629308 0.039280035 0.014457259 0.0007238238 0.001701651
0.008632615 -0.04372765 -0.096146815 -0.12194739 -0.0103310365 0.020629276 -0.08220314 -0.027437208
0.02647171 -0.004627942 -0.005349541 -0.06860075 -0.01036628 -0.08512231 -0.034778237 -0.01905734
0.059619777 0.015667804 0.002777594 0.063439816 -0.027204497 0.017460609 -0.100034885 -0.00014066958
-0.08216485 -0.08476382 -0.077284366 -0.043864597 -0.018063357 -0.055646047 -0.12702261 -0.047943246
-0.07846833 -0.056847762 0.009065909 0.034711916 -0.048977673 0.007379815 -0.10352786 -0.10823583
-0.045957513 -0.008855731 -0.05935556 -0.110528864 -0.14072336 -0.011514013 -0.016776366 0.021039464
-0.06926883 0.010167418 -0.10149265 -0.07231591 0.003201906 -0.08123182 -0.054723535 -0.09081255
-0.0932973 -0.059301473 -0.06564653 -0.023015048 0.011715502 -0.006169533 0.0007220418 0.0026699468
-0.12070673 -0.0013141345 -0.097461596 0.0039805197 0.0028994626 -0.06735041 -0.014257926 0.0017983533
-0.10721053 -0.020875212 0.0118263345 0.026262946 0.016616551 -0.0365841 -0.11783358 0.0022763975
-0.07905193 -0.0075469157 -0.050254248 0.008645367 0.018323364 0.014297434 0.010833559 0.01235093
-0.084256865 -0.1221458 -0.025947038 -0.024156919 0.0061333836 -0.16889499 0.016879303 -0.012796262
0.02776269 -0.005651444 -0.03818623 0.013890763 0.022651205 -0.10831138 0.011985299 0.011216979
0.01467192 -0.06655982 0.014092534 -0.014261894 -0.122523494 -0.006105357 0.010394517 0.022654641
-0.0019194072 -0.08048884 -0.10399443 -0.009776409 -0.033451624 0.007909536 0.0136433765 -0.015286599
-0.022104098 0.020149257 -0.06603648 0.005123002 -0.0063064327 0.01742456 -0.09243714 -0.011546897
-0.10687043 0.028964687 -0.07669025 0.0104895 0.0028802084 0.009263542 -0.0053891954 -0.06664457
0.0073829526 0.017962027 -0.08128326 -0.05066753 -0.07205227 0.008641306 0.003988844 0.017429654
-0.04259781 -0.022365374 0.036491327 -0.017385961 0.0107108215 0.0108664865 0.027901666 -0.07580135
0.015108249 0.010484229 -0.15267555 0.031377286 -0.07415367 -0.02763266 -0.15620613 -0.010448945
0.0117546255 -0.01856436 0.0110697 0.007064824 -0.0929061 0.006449837 -0.07430381 0.01663713
0.017071983 0.04139876 -0.0024153562 0.019418787 -0.05811793 0.00091057405 -0.078124836 -0.077212095
0.013672006 0.0099599715 -0.095352836 -0.08332689 0.017962523 -0.015198559 0.005568692 0.0066855573
0.011282258 -0.076734155 0.00097396993 -0.0029485459 -0.0765281 0.027429724 -0.008861708 0.006735351
0.012375414 -0.100620374 -0.11704152 -0.01706271 0.031487796 -0.033627667 -0.035430044 0.011502813
0.01022321 -0.080181465 4.277996e-05 -0.0011720189 -0.104568616 -0.124060184 -0.009560501 -0.004065614
-0.099793725 0.016046818 -0.08744495 -0.009610275 -0.04820661 -0.05698772 0.011362115 -0.004441046
00000000: 9c0c b6bd 8446 3bbc 9ad0 a5bd 78ba 9cbd
00000010: 14c0 5cbd 08b2 11bb 67a9 063d f030 803a
00000020: 683d a5bd db51 783c 72e1 5abc fc98 b4bd
00000030: 41ec 4cbd 5496 463c eb26 a7bd 1631 ab3c
00000040: 764b 7bbd 9518 7abc 0d8c 41bd 80b5 b7bc
00000050: 971a 73bd 6d78 ad3c 96b5 d6bc 8016 83bc
00000060: 3cd9 9ebd 2fc2 323c 54a9 023c 52b1 00be
00000070: 9578 b5bd 3872 3ebd a3d7 d2bd 7e9f 9a3a
00000080: a91f 96bd ab13 923c bdd5 aeba 303a 883c
00000090: 1ae4 203d 24de 6c3c febe 3d3a ef09 df3a
000000a0: d06f 0d3c c41b 33bd 9fe8 c4bd 8ebf f9bd
000000b0: 8243 29bc bafe a83c 1f5a a8bd ffc3 e0bc
000000c0: 33db d83c fea5 97bb 344b afbb 8d7e 8cbd
000000d0: 54d7 29bc 9b54 aebd a073 0ebd 241e 9cbc
000000e0: de33 743d c459 803c 4b08 363b bcec 813d
000000f0: f7db debc 8d09 8f3c 17df ccbd b480 13b9
00000100: 0b46 a8bd a798 adbd 4447 9ebd 5dab 33bd
00000110: 9bf9 93bc 1ced 63bd 3712 02be 2360 44bd
00000120: 01b4 a0bd 33d9 68bd 2e89 143c 152e 0e3d
00000130: d09c 48bd 60d2 f13b 6a06 d4bd bfaa ddbd
00000140: f23d 3cbd a117 11bc d11e 73bd f55c e2bd
00000150: c919 10be 45a5 3cbc 976e 89bc f45a ac3c
00000160: d1dc 8dbd 3e95 263c 61db cfbd 5d1a 94bd
00000170: 12d7 513b de5c a6bd c925 60bd eefb b9bd
00000180: a812 bfbd 1ae6 72bd b071 86bd 0e8a bcbc
00000190: 60f2 3f3c cb29 cabb 6847 3d3a 46fa 2e3b
000001a0: 1735 f7bd 093f acba f299 c7bd 056f 823b
000001b0: e904 3e3b 03ef 89bd 139a 69bc b9b6 eb3a
000001c0: 3291 dbbd 7e02 abbc 3ec3 413c 6425 d73c
000001d0: 6f1f 883c 36d9 15bd bb52 f1bd 9d2f 153b
000001e0: fae5 a1bd 1e4c f7bb 66d7 4dbd 4ca5 0d3c
000001f0: e11a 963c c93f 6a3c 3d7f 313c 8e5b 4a3c
00000200: dd8e acbd 9427 fabd e28e d4bc bbe4 c5bc
00000210: 8dfa c83b cff2 2cbe 7746 8a3c 6aa7 51bc
00000220: 956e e33c c02f b9bb 2a69 1cbd 1596 633c
00000230: 058f b93c 5bd2 ddbd fd5d 443c 6bc7 373c
00000240: 7e62 703c 8450 88bd 5fe4 663c b8aa 69bc
00000250: 99ed fabd 720f c8bb c44d 2a3c 3a96 b93c
00000260: 9e94 fbba 55d7 a4bd 08fb d4bd 3b2d 20bc
00000270: 9204 09bd 0097 013c 7888 5f3c a574 7abc
00000280: a713 b5bc 0e10 a53c 223e 87bd dbde a73b
00000290: 31a6 cebb f3bd 8e3c af4f bdbd 322f 3dbc
000002a0: e2de dabd 5a47 ed3c c70f 9dbd 27dc 2b3c
000002b0: e1c1 3c3b 1cc6 173c d997 b0bb f37c 88bd
000002c0: b2ec f13b 1a25 933c d677 a6bd c288 4fbd
000002d0: 2490 93bd 4494 0d3c d9b4 823b a2c8 8e3c
000002e0: 0b7b 2ebd 9737 b7bc ee77 153d 016d 8ebc
000002f0: 717c 2f3c 5909 323c 0992 e43c bd3d 9bbd
00000300: 9788 773c 0bc6 2b3c fb56 1cbe 7885 003d
00000310: e1dd 97bd e35d e2bc 80f4 1fbe 0d32 2bbc
00000320: 7996 403c 4914 98bc b05d 353c 0a80 e73b
00000330: 8e45 bebd 2759 d33b 992c 98bd 974a 883c
00000340: 8bda 8b3c bf91 293d f44a 1ebb 2614 9f3c
00000350: 110d 6ebd 97b3 6e3a eaff 9fbd 6021 9ebd
00000360: 8d00 603c 262f 233c 5948 c3bd 4aa7 aabd
00000370: 2426 933c 6003 79bc 9379 b63b 8512 db3b
00000380: 38d9 383c cc26 9dbd 0452 7f3a 643c 41bb
00000390: c4ba 9cbd 4db4 e03c b330 11bc 38b4 dc3b
000003a0: 40c2 4a3c 0e12 cebd 77b3 efbd 19c7 8bbc
000003b0: 59f9 003d 2abd 09bd 181f 11bd 4b76 3c3c
000003c0: 407f 273c 2e36 a4bd a26e 3338 6e9e 99ba
000003d0: 1228 d6bd 4413 febd a6a3 1cbc d838 85bb
000003e0: a760 ccbd 9e74 833c 5716 b3bd 6a74 1dbc
000003f0: 4b74 45bd f56b 69bd 2a28 3a3c 3286 91bb

Const_1:0 f4 [200]
-0.17717558 -0.1270288 -0.28482637 -0.27512094 -0.3531505 -0.24004392 -0.25740564 -0.45711458
-0.07686341 -0.2898541 -0.31196928 -0.36295116 -0.1118339 -0.18863335 -0.3473114 -0.8824636
-0.22854882 -0.30018762 -0.38597363 -0.34841266 -0.21189892 -0.5831069 -0.32084084 -0.5004635
0.2842312 -0.7825347 0.54293275 -0.15651685 -0.39719537 -0.1737164 -0.4588732 -0.24058041
-0.9790479 -0.1293015 -0.33463195 -0.27496397 -0.3486569 -0.30682284 -0.37351602 -0.1839758
-0.1359465 -0.4986149 -0.28197017 -0.22951865 -0.3001438 -0.23910606 -0.12160818 -0.28495127
-0.25552937 -0.38681993 -0.14878142 -0.18510991 -0.2402811 -0.23018026 -0.28901157 -0.75437164
-0.29257306 -0.36589044 -0.30312246 -0.30667585 -0.24988946 -0.30444524 -0.39138007 -0.27412227
-0.29662538 -0.22881144 -0.20817736 -0.13620077 -0.23181278 -0.4045535 -0.92672694 -0.270823
-0.32554597 -0.29215258 -0.37671462 -0.30917314 -0.7183 -0.3013616 -0.21875137 -0.23575753
-0.30059254 -0.21734273 -0.30430678 -0.36384878 -0.6806415 -0.3128108 -0.24609725 -0.33551848
-0.3380758 -0.18530059 -0.3638553 -0.38789895 -0.14375922 -0.41261256 -0.44316098 -0.33442804
-0.71769077 -0.45777574 -0.12122357 -0.2551574 -0.352639 -0.11176306 -0.1758537 -0.30536577
-0.063115284 -0.23980242 -0.41048497 -0.19663754 -0.24045163 -0.22667694 -0.4101044 0.27857
-0.42258054 -0.26379752 -0.2697851 -0.34785748 -0.30249584 -0.15030903 -0.3961792 -0.11929036
-0.15742144 -0.76347613 -0.36479044 -0.45114735 -0.59467643 -0.8293086 -0.40515104 -0.5149025
-0.101320386 -0.7429926 -0.39191633 -0.48156506 -0.4277221 -0.10542858 -0.90132564 -0.4102592
-0.3331643 -0.60161597 -0.26627827 -0.22750539 -0.48982143 -0.3390056 -0.2483469 -0.28720903
-0.66652256 -0.5743542 0.33738595 -0.1553891 -0.1796574 -0.3159616 -0.28051773 -0.26784763
-0.26749706 -0.63094026 -0.15946889 -0.31053036 -0.15942925 -0.240446 -0.24287805 -0.23148888
-0.75585663 -0.43223253 -0.1963104 -0.31420857 -0.16186242 -0.2497991 -0.10034114 -0.74771184
-0.18331456 -0.36358994 -0.7457955 -0.31587514 -0.24438104 -0.35303128 0.25592288 -0.92249477
-0.076533526 -0.3122255 -0.8800869 -0.2792505 -0.58773124 -0.23404026 -0.48901817 -0.14334935
-0.34923264 -1.1804911 -0.2387408 -0.4481733 -0.17998591 -0.6007947 0.334907 -0.30220535
-0.23372337 -0.18814322 -0.60181886 -0.265617 -0.5184895 -0.42077065 -0.26078108 -0.29342526
00000000: 846d 35be d613 02be c3d4 91be a7dc 8cbe
00000010: 24d0 b4be 13ce 75be acca 83be ec0a eabe
00000020: 906a 9dbd c267 94be 70ba 9fbe bcd4 b9be
00000030: 2c09 e5bd 1a29 41be cdd2 b1be 22e9 61bf
00000040: b408 6abe 31b2 99be 569e c5be 2563 b2be
00000050: 08fc 58be 7e46 15bf 4045 a4be 601e 00bf
00000060: c086 913e 3254 48bf a4fd 0a3f f445 20be
00000070: 315d cbbe b6e2 31be 6ef1 eabe b65a 76be
00000080: e2a2 7abf 9d67 04be e154 abbe 14c8 8cbe
00000090: 2883 b2be e217 9dbe 7e3d bfbe 2764 3cbe
000000a0: 8f35 0bbe 744a ffbe 655e 90be f006 6bbe
000000b0: 73ac 99be 38d8 74be b60d f9bd 22e5 91be
000000c0: bfd4 82be 430d c6be 285a 18be 748d 3dbe
000000d0: 400c 76be 60b4 6bbe 53f9 93be 801e 41bf
000000e0: 23cc 95be fe55 bbbe de32 9bbe 9e04 9dbe
000000f0: 06e3 7fbe 3fe0 9bbe f862 c8be c159 8cbe
00000100: 48df 97be 8c4d 6abe 722c 55be 3778 0bbe
00000110: 5460 6dbe a321 cfbe fa3d 6dbf 50a9 8abe
00000120: f6ad a6be 0695 95be bde0 c0be f14b 9ebe
00000130: 82e2 37bf 114c 9abe 5c00 60be 6c6a 71be
00000140: 44e7 99be 188f 5ebe 19ce 9bbe 634a babe
00000150: 853e 2ebf bd28 a0be eb00 7cbe 14c9 abbe
00000160: 4518 adbe 70bf 3dbe 3e4b babe b19a c6be
00000170: 9e35 13be f441 d3be ffe5 e2be 273a abbe
00000180: 95ba 37bf 9561 eabe 1044 f8bd fea3 82be
00000190: 198d b4be 08e4 e4bd fe12 34be e758 9cbe
000001a0: 9642 81bd c48e 75be 162b d2be 5a5b 49be
000001b0: f438 76be 001e 68be 34f9 d1be baa0 8e3e
000001c0: 7a5c d8be 7810 87be 4621 8abe 601a b2be
000001d0: bce0 9abe 9cea 19be 00d8 cabe 814e f4bd
000001e0: 1633 21be 2c73 43bf d0c5 babe c9fc e6be
000001f0: b73c 18bf 924d 54bf f56f cfbe a6d0 03bf
00000200: 1081 cfbd c334 3ebf 42a9 c8be b28f f6be
00000210: 64fe dabe f0ea d7bd 47bd 66bf 7e0d d2be
00000220: 8394 aabe 8103 1abf a055 88be 2cf7 68be
00000230: e0c9 fabe 2492 adbe a64e 7ebe 100d 93be
00000240: 39a1 2abf e008 13bf dabd ac3e 521e 1fbe
00000250: 1cf8 37be b8c5 a1be 05a0 8fbe 5323 89be
00000260: 60f5 88be 4d85 21bf d04b 23be d6fd 9ebe
00000270: 6c41 23be 7a37 76be 06b5 78be 6c0b 6dbe
00000280: d27f 41bf 954d ddbe 9805 49be f2df a0be
00000290: 43bf 25be 56cb 7fbe a87f cdbd 0b6a 3fbf
000002a0: d0b6 3bbe 7628 babe 74ec 3ebf 63ba a1be
000002b0: 063f 7abe 84c0 b4be 5308 833e 9e28 6cbf
000002c0: 9cbd 9cbd 05dc 9fbe 604d 61bf ecf9 8ebe
000002d0: 8e75 16bf 40a8 6fbe 9760 fabe 2cca 12be
000002e0: 9fce b2be 551a 97bf 7878 74be f976 e5be
000002f0: 3a4e 38be aecd 19bf ee78 ab3e a9ba 9abe
00000300: 2e55 6fbe 9ea8 40be cd10 1abf f4fe 87be
00000310: babb 04bf 406f d7be 1985 85be d63b 96be

Const:0 f4 [200]
0.49027747 0.58284754 0.46488804 0.5165404 0.42838463 0.41378203 0.80767536 0.45191213
0.43640682 0.5944494 0.43967688 0.58643615 0.40989235 0.5570776 0.46089283 0.57279307
0.47982988 0.48073763 0.61354095 0.46250892 0.47864956 0.56878257 0.375878 0.34858838
-0.43370983 0.41933864 -0.5361171 0.47360623 0.45150143 0.5460571 0.52386063 0.41942295
0.49351308 0.48679718 0.39262572 0.47915405 0.45725572 0.3877584 0.73119473 0.48901528
0.68898636 0.58546466 0.48212308 0.4729081 0.46433607 0.5880381 0.48739344 0.38602147
0.46568787 0.37616816 0.47794035 0.5573892 0.5325743 0.45736033 0.47970745 0.5365954
0.5203599 0.48806933 0.4420824 0.42159477 0.48592377 0.4474601 0.5858797 0.56349653
0.63319564 0.48589107 0.59214574 0.56911176 0.46583623 0.584329 0.4034914 0.39963496
0.4742063 0.50154924 0.55941635 0.5148945 0.59812236 0.579948 0.4918328 0.44954562
0.49928764 0.60627854 0.3942536 0.56722885 0.598752 0.6106857 0.47740698 0.49752015
0.5322879 0.5790749 0.6424299 0.4128952 0.65071976 0.3773717 0.61531824 0.48634505
0.38441584 0.52098304 0.53883314 0.4007515 0.6980648 0.5256513 0.5171253 0.46094993
0.5446655 0.6331535 0.6417681 0.64837277 0.48836422 0.5047011 0.5265584 -0.4444413
0.47030777 0.5096319 0.50390977 0.6023407 0.7445092 0.49811772 0.5014748 0.5862344
0.6160986 0.53317326 0.40977088 0.7740418 0.6126092 0.6435508 0.52630824 0.53248566
0.5247207 0.622261 0.4461989 0.50852054 0.49828506 0.5822031 0.45573875 0.4792899
0.40288967 0.59541875 0.36770612 0.40240476 0.48744673 0.43439582 0.5374298 0.52724856
0.6354834 0.4848113 -0.77384025 0.5932764 0.5318412 0.5367589 0.4409266 0.5882739
0.52632785 0.62928927 0.5663437 0.432608 0.610854 0.537633 0.6290437 0.4793114
0.52909446 0.447391 0.45947415 0.54096866 0.5937336 0.38818052 0.4857842 0.5230232
0.48392573 0.4714726 0.49845174 0.40696225 0.44332775 0.7465466 -0.5234019 0.42624822
0.43608478 0.50888216 0.49231502 0.38275295 0.5741112 0.4286608 0.42024118 0.5592612
0.55769604 0.41396746 0.51214343 0.4605988 0.69834435 0.44311395 -0.71389055 0.5186583
0.45054206 0.5574549 0.44640347 0.4510239 0.49110344 0.54186076 0.5125017 0.47186843
00000000: a605 fb3e 7f35 153f ce05 ee3e fe3b 043f
00000010: 3b55 db3e 3ddb d33e d0c3 4e3f 0761 e73e
00000020: b770 df3e d62d 183f 541d e13e ae20 163f
00000030: 69dd d13e a39c 0e3f 25fa eb3e 91a2 123f
00000040: 43ac f53e 3e23 f63e 0511 1d3f f8cd ec3e
00000050: 8e11 f53e bc9b 113f 1573 c03e 2d7a b23e
00000060: 370f debe 8eb3 d63e f83e 09bf 847c f23e
00000070: 322b e73e 66ca 0b3f bb1b 063f 9bbe d63e
00000080: bfad fc3e 7b3d f93e 3d06 c93e ae53 f53e
00000090: 6c1d ea3e 4588 c63e 942f 3b3f 3660 fa3e
000000a0: 6961 303f 03e1 153f d6d8 f63e 0321 f23e
000000b0: 75bd ed3e aa89 163f a28b f93e 9ba4 c53e
000000c0: a46e ee3e 1d99 c03e 99b4 f43e 0fb1 0e3f
000000d0: ca56 083f 222b ea3e 379c f53e 515e 093f
000000e0: 4e36 053f 39e4 f93e a058 e23e 45db d73e
000000f0: 00cb f83e 7d19 e53e 36fc 153f 4f41 103f
00000100: 1c19 223f b7c6 f83e dd96 173f 4fb1 113f
00000110: 1682 ee3e 9696 153f 6d96 ce3e f49c cc3e
00000120: 2bcb f23e 8865 003f e935 0f3f 20d0 033f
00000130: 8c1e 193f 7977 143f 82d1 fb3e d82a e63e
00000140: a1a2 ff3e 1235 1b3f 9cdb c93e e935 113f
00000150: d047 193f e655 1c3f b06e f43e f6ba fe3e
00000160: 0544 083f 413e 143f 4976 243f 0067 d33e
00000170: 9295 263f dd36 c13e 7f85 1d3f 3802 f93e
00000180: 27d2 c43e 255f 053f f8f0 093f 4d2f cd3e
00000190: 60b4 323f 1591 063f 5362 043f a101 ec3e
000001a0: 336f 0b3f 5916 223f ea4a 243f c2fb 253f
000001b0: e00a fa3e 1734 013f 88cc 063f cf8d e3be
000001c0: 2ecc f03e 3c77 023f 3b00 013f 0033 1a3f
000001d0: 2898 3e3f 4909 ff3e a760 003f 7513 163f
000001e0: a3b8 1d3f 0b7e 083f 7dcd d13e 9a27 463f
000001f0: f5d3 1c3f bfbf 243f 23bc 063f fb50 083f
00000200: 1954 063f 7f4c 1f3f 2f74 e43e 672e 023f
00000210: 381f ff3e 430b 153f 9756 e93e 7c65 f53e
00000220: 8e47 ce3e 5d6d 183f fa43 bc3e ff07 ce3e
00000230: 9e92 f93e 2169 de3e 0095 093f c3f9 063f
00000240: 0aaf 223f 3039 f83e 651a 46bf f6e0 173f
00000250: bf26 083f 0869 093f 22c1 e13e 1e99 163f
00000260: 6cbd 063f 1a19 213f e7fb 103f cc7e dd3e
00000270: ee60 1c3f 51a2 093f 0209 213f 4e68 f53e
00000280: bc72 073f 6f10 e53e 3240 eb3e ec7c 0a3f
00000290: edfe 173f 99bf c63e b5b8 f83e d9e4 053f
000002a0: 1dc5 f73e db64 f13e 1135 ff3e 5b5d d03e
000002b0: dbfb e23e ae1d 3f3f abfd 05bf 353d da3e
000002c0: 8146 df3e 1a46 023f b710 fc3e 32f8 c33e
000002d0: f4f8 123f 6e79 db3e da29 d73e be2b 0f3f
000002e0: 2bc5 0e3f 8bf3 d33e d51b 033f 9bd3 eb3e
000002f0: b2c6 323f d5df e23e 88c1 36bf cac6 043f
00000300: 73ad e63e 5db5 0e3f ff8e e43e 9bec e63e
00000310: e971 fb3e 63b7 0a3f 5033 033f bd98 f13e
